checkpoints/20250302_190251_checkpoint.pt (torch, 514130 bytes, 55 tensors)

input_bn.weight f4 [16]
0.63958913 0.62462103 0.6405394 0.67316777 0.65165967 0.6681479 0.66778743 0.488169
1.4305383 0.54799247 0.5774239 0.50469476 0.5437845 0.5799339 0.5863792 1.8379433
00000000: 1dbc 233f 2ae7 1f3f 64fa 233f b954 2c3f
00000010: 2bd3 263f be0b 2b3f 1ef4 2a3f 4af1 f93e
00000020: e11b b73f 3c49 0c3f 0dd2 133f ad33 013f
00000030: 7635 0b3f 8c76 143f f21c 163f ba41 eb3f

input_bn.bias f4 [16]
-0.029647876 0.08189856 -0.02817917 -0.06399366 0.03999442 -0.1246412 0.008858355 -0.0067680487
-0.08034625 -0.002270954 0.024326252 0.041823283 -0.016244598 0.021707429 0.022318186 0.26543167
00000000: 1ae0 f2bc 6fba a73d 01d8 e6bc 1c0f 83bd
00000010: 30d1 233d e343 ffbd a222 113c 82c6 ddbb
00000020: 938c a4bd 49d4 14bb d947 c73c e44e 2b3d
00000030: 6413 85bc c7d3 b13c a1d4 b63c a9e6 873e

input_bn.running_mean f4 [16]
0.149064 0.15118079 0.15255007 0.15159918 0.15171902 0.15189992 0.15220179 0.017170234
0.0021049562 -0.008138127 -0.17232877 0.07744133 0.11750623 0.009745938 0.002933864 -0.004259082
00000000: 3ca4 183e 23cf 1a3e 1636 1c3e d13c 1b3e
00000010: 3b5c 1b3e a78b 1b3e c9da 1b3e 97a8 8c3c
00000020: 4ef3 093b c755 05bc f476 30be 8f99 9e3d
00000030: 1ba7 f03d 6dad 1f3c 1246 403b c58f 8bbb

input_bn.running_var f4 [16]
1.004172 0.9971614 0.9959607 0.9897145 0.98652345 0.97914034 0.976393 1.0027171
1.0040638 1.0568765 0.9985435 1.0183023 1.0681328 0.9250036 1.0243975 1.0009086
00000000: b588 803f f845 7f3f 48f7 7e3f ee5d 7d3f
00000010: cd8c 7c3f f1a8 7a3f e4f4 793f 0959 803f
00000020: 2a85 803f bb47 873f 8ca0 7f3f bb57 823f
00000030: 93b8 883f 09cd 6c3f 751f 833f c61d 803f

lstm.weight_ih_l0 f4 [172, 16]
0.11052196 0.1272523 -0.040493943 -0.06671632 -0.10333617 -0.14826608 0.08482498 -0.0142640285
0.10927538 0.0155670615 -0.06733382 0.08776975 0.048152186 -0.0379184 -0.08394254 -0.06492189
-0.037595563 0.016936518 -0.023077264 0.005570842 0.10158441 0.013452946 0.06576242 0.040628836
0.013392653 0.008855644 -0.13087012 -0.07517649 0.12253134 -0.09655135 0.09815671 0.02754722
0.06671009 0.0068125078 -0.1219136 0.10735879 0.054641698 0.01983976 -0.121073194 -0.112693824
0.108369164 0.008127312 0.110139236 -0.13776977 -0.1770144 -0.07891015 0.15006486 -0.011551296
0.1491386 -0.05806608 -0.17616597 0.17278601 -0.08677014 0.12631801 -0.09079295 0.028883444
0.2112256 -0.035606667 -0.06883382 -0.009977767 -0.03613993 -0.025696503 -0.06711284 -0.054386187
-0.03378479 0.027173283 -0.108007126 -0.15223 0.2156622 -0.06459313 0.054420263 -0.10951437
0.16496773 -0.122601084 -0.13689545 -0.0003467237 -0.03726899 -0.054094307 0.0057084924 0.08159118
0.07279041 0.09095399 0.04744061 -0.018544132 -0.20433074 -0.087612815 0.10564821 0.0015742765
0.03892759 -0.18897285 -0.0059409915 -0.10135795 -0.05330178 -0.16110167 0.07487651 -0.15304105
-0.029781776 0.302138 0.047853157 0.035394553 -0.14916632 -0.045864176 0.0027153452 -0.10148415
0.0063099205 -0.14315215 0.09534412 -0.17322473 0.05560717 0.022101235 0.2510197 0.0010092633
-0.058296267 -0.16038725 -0.07713978 0.038162243 -0.005597071 0.16414121 -0.039950684 0.28021127
-0.2525359 0.019777551 -0.02334879 -0.17860146 -0.021890342 -0.033014867 0.14060125 0.013882406
0.13014252 -0.054134265 -0.060393132 0.06973116 0.15434504 -0.048655983 -0.02658072 0.1004649
0.21301495 0.06983531 0.09026893 -0.062094424 0.052184947 -0.005391499 0.0587687 -0.16173446
0.120026276 -0.22201961 0.09996905 0.08662055 -0.18145189 0.035231464 -0.0086426465 0.048053782
0.043434527 0.017707985 -0.031021368 -0.013496531 -0.0040276954 -0.1083979 0.06011065 0.00028679607
0.07061361 0.048826717 -0.00082126993 -0.1222896 -0.0015423526 -0.1166094 0.094292305 -0.104833946
0.30437884 -0.04130247 -0.03636032 0.03878133 -0.07184747 -0.08176483 -0.08186163 -0.01637494
-0.028763643 0.055383503 -0.020780781 -0.036674302 0.049347077 0.03739302 0.029609893 -0.04669278
0.23110048 0.09038567 0.008879731 0.037037414 0.13504149 0.062540546 0.11702916 -0.18603835
-0.012767137 -0.0007021715 0.035107426 0.09795458 0.08147583 -0.1857204 0.007835906 0.04522533
-0.063482784 0.021319281 -0.084788114 -0.00788493 0.06624877 -0.008473612 0.100554526 -0.027884744
-0.11152082 0.17784685 -0.106562056 0.07044276 -0.03216966 -0.17556426 -0.06923621 0.010460047
0.14074904 0.14117248 0.073595084 0.03906064 0.1720337 -0.09261396 0.074646376 0.21579307
-0.12837692 0.026089264 0.09335163 -0.11856278 -0.014557601 0.10888096 0.063569374 0.052400608
0.10449295 0.07494831 0.0034116798 -0.046870887 -0.05973945 0.0003560742 -0.018541133 -0.17575888
0.14303295 -0.03730434 -0.19504113 -0.1271738 -0.22684754 0.043158937 -0.04965788 0.079377934
0.2167406 -0.20059633 0.062362645 -0.061477873 0.08401432 -0.052432183 0.10504607 0.033932537
00000000: 5659 e23d 6d4e 023e fadc 25bd 91a2 88bd
00000010: eaa1 d3bd 10d3 17be b8b8 ad3d acb3 69bc
00000020: c5cb df3d fd0c 7f3c 50e6 89bd a0c0 b33d
00000030: 3a3b 453d 5350 1bbd 11ea abbd c5f5 84bd
00000040: cefd 19bd 74be 8a3c 880c bdbc 9c8b b63b
00000050: 7d0b d03d bf69 5c3c 73ae 863d 6c6a 263d
00000060: dc6c 5b3c 4317 113c d102 06be 22f6 99bd
00000070: b6f1 fa3d b7bc c5bd 6306 c93d b5aa e13c
00000080: 4d9f 883d 753b df3b d6ad f9bd edde db3d
00000090: f9cf 5f3d fe86 a23c 39f5 f7bd 05cc e6bd
000000a0: a7f0 dd3d 6b28 053c ae90 e13d 8513 0dbe
000000b0: 4343 35be a59b a1bd 9aaa 193e a641 3dbc
000000c0: cab7 183e b3d6 6dbd da64 34be d1ee 303e
000000d0: 8bb4 b1bd 8259 013e a7f1 b9bd f99c ec3c
000000e0: 864b 583e 4cd8 11bd bff8 8cbd ca79 23bc
000000f0: 7707 14bd 7981 d2bc 7572 89bd 0dc4 5ebd
00000100: ec61 0abd 819a de3c d732 ddbd 2ee2 1bbe
00000110: 8dd6 5c3e 6749 84bd c8e7 5e3d 1249 e0bd
00000120: 4ded 283e 4716 fbbd 522e 0cbe 78c8 b5b9
00000130: 5ea7 18bd fe91 5dbd 4e0e bb3b 4719 a73d
00000140: 2313 953d 1646 ba3d 1651 423d dde9 97bc
00000150: 143c 51be 596e b3bd 175e d83d f457 ce3a
00000160: 8972 1f3d 1982 41be a6ac c2bb c294 cfbd
00000170: f852 5abd d6f7 24be db58 993d cbb6 1cbe
00000180: e9f8 f3bc d5b1 9a3e ac01 443d e1f9 103d
00000190: 0ebf 18be 13dc 3bbd eff3 313b ecd6 cfbd
000001a0: 73c3 ce3b 7a96 12be c743 c33d d361 31be
000001b0: 58c4 633d a60d b53c a785 803e 4249 843a
000001c0: 11c8 6ebd 8e3c 24be 76fb 9dbd 0350 1c3d
000001d0: a267 b7bb a214 283e 54a3 23bd da77 8f3e
000001e0: 634c 81be 8804 a23c f645 bfbc 4de3 36be
000001f0: 6053 b3bc 993a 07bd c6f9 0f3e 0873 633c
00000200: 1544 053e e4bb 5dbd ca5e 77bd 36cf 8e3d
00000210: a00c 1e3e 7f4b 47bd cfbf d9bc 8bc0 cd3d
00000220: 9720 5a3e d105 8f3d ebde b83d b956 7ebd
00000230: e2bf 553d 2cab b0bb 73b7 703d b89d 25be
00000240: 56d0 f53d 1c59 63be 93bc cc3d 1d66 b13d
00000250: 86ce 39be de4e 103d e399 0dbc 0bd4 443d
00000260: 67e8 313d 5610 913c 8620 febc 8e20 5dbc
00000270: c2fa 83bb b8ff ddbd 9636 763d 1e5d 9639
00000280: de9d 903d 86fe 473d 7e4a 57ba f872 fabd
00000290: c428 caba e9d0 eebd 531c c13d 2eb3 d6bd
000002a0: 8bd7 9b3e c72c 29bd 8fee 14bd 2cd9 1e3d
000002b0: c424 93bd 5274 a7bd 12a7 a7bd bd24 86bc
000002c0: bba1 ebbc d0d9 623d 753c aabc cb37 16bd
000002d0: 2920 4a3d 6c29 193d 7290 f23c ee40 3fbd
000002e0: 9ba5 6c3e 1f1c b93d 4b7c 113c 8bb4 173d
000002f0: 5148 0a3e 4215 803d fcac ef3d d680 3ebe
00000300: 412d 51bc ef11 38ba cecc 0f3d 699c c83d
00000310: cddc a63d 7d2d 3ebe 2c62 003c 323e 393d
00000320: 4303 82bd c6a5 ae3c 64a5 adbd cb2f 01bc
00000330: 6fad 873d e8d4 0abc 88ef cd3d 8c6e e4bc
00000340: 0765 e4bd 7c1d 363e 353d dabd 4b44 903d
00000350: 55c4 03bd 1ec7 33be b7cb 8dbd 9e60 2b3c
00000360: 8420 103e 858f 103e 05b9 963d 0dfe 1f3d
00000370: 9a29 303e 63ac bdbd 33e0 983d dcf8 5c3e
00000380: 3d75 03be 27b9 d53c 242f bf3d 0bd1 f2bd
00000390: 0183 6ebc fbfc de3d a930 823d 05a2 563d
000003a0: 6600 d63d 807e 993d 7d96 5f3b b0fb 3fbd
000003b0: 5bb1 74bd 78af ba39 93e3 97bc 23fa 33be
000003c0: 3b77 123e 70cc 18bd ddb8 47be d939 02be
000003d0: b94a 68be 6dc7 303d 1066 4bbd e690 a23d
000003e0: 3ff1 5d3e 2069 4dbe f96f 7f3d 39d0 7bbd
000003f0: b30f ac3d 21c3 56bd 6522 d73d d8fc 0a3d

lstm.weight_hh_l0 f4 [172, 43]
0.067595 -0.028008288 -0.011582526 -0.17482334 0.041563068 0.015206228 -0.19929269 0.027652424
-0.11982992 0.10611496 -0.06860066 0.0924652 0.04359134 0.15658835 0.19502437 0.00765753
0.08466097 0.26632434 -0.018364377 -0.1694232 -0.008466816 -0.12552209 -0.0472513 0.13138151
0.0032440566 0.14330044 -0.14215174 0.032910746 -0.057636015 0.07692863 -0.025479212 -0.11594716
-0.039649777 -0.07218541 0.06080647 0.19262682 -0.08029318 0.019542625 0.08024771 0.07191064
0.04000507 -0.2004042 -0.08307525 -0.010402593 -0.027385958 0.038990844 0.07201323 0.20503125
-0.029255234 -0.17806058 -0.10199712 0.2501688 -0.0981865 0.091131255 0.022501519 -0.21794675
0.020794937 -0.03605856 -0.09523551 -0.032580633 -0.031452335 0.0003860046 0.079467386 0.069098055
-0.084427856 -0.06830819 -0.10930486 0.10581469 -0.08754403 -0.15253402 0.04546587 -0.05289002
0.08283234 0.18479937 -0.0818333 -0.09519287 0.09911577 -0.12536977 -0.019030018 -0.0148684615
-0.011535481 0.037389867 -0.032812517 0.0018263032 0.14074603 -0.07816183 -0.02493679 0.17309554
0.1283007 -0.008997887 -0.12439898 0.027015986 -0.086196244 0.17472245 -0.056822762 0.11050449
-0.050524093 0.0067799725 -0.00816146 0.027151631 0.39023128 -0.02058673 -0.19237807 0.10775822
0.056597795 -0.17634872 0.06675283 0.15595108 0.19307964 0.05374952 0.24266832 -0.15669048
0.1008569 0.0828272 0.1005347 -0.0148611665 -0.06921825 0.0730317 -0.057087313 0.078890815
0.107912295 0.036549143 0.0059055537 -0.0711156 0.005332318 0.016209077 -0.12331487 0.03763437
0.3038558 0.004145766 0.06879418 -0.11296252 0.08331544 -0.12134546 0.008151699 0.062471
-0.02050851 -0.22356601 0.012745884 -0.09191462 0.0700025 -0.09191846 -0.09009004 0.2858289
-0.058848903 0.1236842 0.056279182 0.043031655 -0.08758858 0.061608735 0.16569044 0.12831841
0.1272793 -0.09205172 0.11590152 -0.009383085 0.132534 0.12063727 -0.16981514 0.13612403
-0.10699864 0.048219938 -0.027746966 0.24073662 -0.057589825 0.13184999 -0.04443055 0.109806344
-0.010271111 0.1096368 0.03965179 0.0118889455 0.008997515 0.047184054 -0.15828659 0.0076285833
0.11692846 0.07277955 -0.075234756 0.014727258 -0.017151581 0.019477708 -0.10136031 0.1622451
0.048339494 0.19162214 0.09002357 -0.043406114 -0.07719684 0.22945526 -0.053128675 -0.07963885
-0.1302177 -0.08301901 0.043071657 -0.067612045 -0.01417733 0.056053456 0.027968194 -0.09746168
-0.044836402 -0.01639668 0.01511093 0.074843116 -0.06685632 -0.08011721 0.12069327 -0.029682094
-0.0075846408 0.055136483 0.010572063 -0.012773499 -0.02932219 0.09164116 -0.10841358 -0.029239148
0.031306673 -0.07267504 0.04745921 0.104518235 0.24967204 -0.04364159 0.11170333 0.14563437
-0.00083136803 0.20834886 -0.079930626 0.026776 0.1098217 -0.09459737 0.12869848 -0.048087332
-0.0182926 0.03537846 0.06005997 0.17560461 -0.06903902 0.061300986 -0.084869295 -0.061541416
0.16057415 0.039699305 -0.09237045 0.0621232 0.09077288 -0.15464514 0.06519037 0.054441784
0.034603417 0.16485624 0.07567189 -0.2184693 0.11103546 0.0346065 0.14121614 -0.043729108
00000000: 3f6f 8a3d a371 e5bc a3c4 3dbc e404 33be
00000010: 093e 2a3d 8b23 793c 6213 4cbe 5687 e23c
00000020: 6469 f5bd cd52 d93d 817e 8cbd 655e bd3d
00000030: d58c 323d b258 203e 78b4 473e 04ec fa3b
00000040: bb62 ad3d aa5b 883e e470 96bc 467d 2dbe
00000050: 66b8 0abc dd88 00be 948a 41bd e088 063e
00000060: 3d9a 543b 5abd 123e 3a90 11be 6bcd 063d
00000070: be13 6cbd c28c 9d3d c8b9 d0bc b475 edbd
00000080: ce67 22bd f2d5 93bd 3510 793d f73f 453e
00000090: c070 a4bd db17 a03c e958 a43d e345 933d
000000a0: 5bdc 233d c236 4dbe 5b23 aabd a36f 2abc
000000b0: 8458 e0bc ddb4 1f3d ac7b 933d b6f3 513e
000000c0: aca8 efbc 8355 36be dee3 d0bd 2016 803e
000000d0: 0116 c9bd 06a3 ba3d 1b55 b83c 6f2d 5fbe
000000e0: 255a aa3c 24b2 13bd d60a c3bd 4573 05bd
000000f0: 2ad4 00bd a960 ca39 ccbf a23d 4883 8d3d
00000100: 83e8 acbd 2ae5 8bbd 3adb dfbd 5fb5 d83d
00000110: 494a b3bd e131 1cbe 6c3a 3a3d 35a3 58bd
00000120: 00a4 a93d 0c3c 3d3e 3898 a7bd 7bf4 c2bd
00000130: 35fd ca3d ef60 00be d7e4 9bbc d99a 73bc
00000140: 50ff 3cbc 1e26 193d 6b66 06bd 9160 ef3a
00000150: ba1f 103e 4f13 a0bd 3d48 ccbc f53f 313e
00000160: 4261 033e e06b 13bc e4c4 febd a150 dd3c
00000170: a887 b0bd 71ea 323e fcbe 68bd 2e50 e23d
00000180: 5af2 4ebd 882a de3b a5b7 05bc 196d de3c
00000190: 65cc c73e 81a5 a8bc c2fe 44be 57b0 dc3d
000001a0: 17d3 673d c294 34be b5b5 883d a4b1 1f3e
000001b0: abb6 453e 7528 5c3d 0b7e 783e 7873 20be
000001c0: 108e ce3d 4fa1 a93d 23e5 cd3d 407c 73bc
000001d0: 4cc2 8dbd a591 953d 63d4 69bd 8291 a13d
000001e0: 1f01 dd3d 8eb4 153d 6083 c13b 0ea5 91bd
000001f0: baba ae3b e6c8 843c 828c fcbd 7f26 1a3d
00000200: fd92 9b3e 35d9 873b f7e3 8c3d e558 e7bd
00000210: 49a1 aa3d f883 f8bd b48e 053c 97e1 7f3d
00000220: 7601 a8bc 7dee 64be 1dd4 503c bb3d bcbd
00000230: 795d 8f3d bf3f bcbd 2081 b8bd 2a58 923e
00000240: 8c0b 71bd 244e fd3d 0085 663d f641 303d
00000250: a461 b3bd 7159 7c3d c1aa 293e e765 033e
00000260: 8155 023e 9d85 bcbd c75d ed3d 83bb 19bc
00000270: feb6 073e ac10 f73d 05e4 2dbe 1964 0b3e
00000280: 1a22 dbbd 4582 453d 9b4d e3bc a983 763e
00000290: 4fe3 6bbd af03 073e cffc 35bd 26e2 e03d
000002a0: 2948 28bc 4289 e03d ea69 223d dac9 423c
000002b0: 506a 133c 1144 413d e115 22be 32f9 f93b
000002c0: 3078 ef3d 720d 953d ae14 9abd 994a 713c
000002d0: 7981 8cbc b78f 9f3c ff95 cfbd 9423 263e
000002e0: a2ff 453d 9838 443e 475e b83d 9cca 31bd
000002f0: 6019 9ebd 52f6 6a3e 749d 59bd b219 a3bd
00000300: ca57 05be df05 aabd e86b 303d 2f78 8abd
00000310: 0848 68bc 4f98 653d 8e1d e53c fd99 c7bd
00000320: 60a6 37bd 5552 86bc d693 773c 5947 993d
00000330: f7eb 88bd 7e14 a4bd 082e f73d dd27 f3bc
00000340: 9488 f8bb cbd6 613d 7236 2d3c f047 51bc
00000350: 1735 f0bc 5cae bb3d f007 debd f086 efbc
00000360: 6d3b 003d a7d6 94bd 9764 423d a80d d63d
00000370: 07aa 7f3e 86c1 32bd b7c4 e43d 2d21 153e
00000380: 2af0 59ba 6759 553e abb2 a3bd 5859 db3c
00000390: 33ea e03d 44bc c1bd 89c9 033e 39f7 44bd
000003a0: 5dda 95bc 01e9 103d 7101 763d b2d1 333e
000003b0: 5464 8dbd be16 7b3d f4cf adbd da12 7cbd
000003c0: 8d6d 243e bd9b 223d b82c bdbd e674 7e3d
000003d0: 22e7 b93d 4c5b 1ebe 8782 853d 59fe 5e3d
000003e0: 50bc 0d3d 13d0 283e ddf9 9a3d 6bb6 5fbe
000003f0: 8f66 e33d 8cbf 0d3d f79a 103e 4b1d 33bd

lstm.bias_ih_l0 f4 [172]
0.06616818 0.050625097 0.09614736 0.054256253 0.08963472 -0.09586781 -0.030875368 -0.046983406
-0.013314406 0.13194488 0.098348334 0.038730618 0.08515977 0.06125178 0.139575 0.09013527
0.04296335 0.06759529 -0.11974993 -0.0062069334 -0.027225345 0.05851832 -0.01675704 0.058624405
0.14855458 0.118440025 0.08091105 0.1608642 0.05656037 0.11646129 0.04096482 -0.04195081
0.13873701 -0.046441186 -0.00799829 0.11685344 0.107036754 -0.06640376 -0.10135617 -0.0012053929
0.05395485 0.12042456 0.02532727 0.02383612 -0.016757537 0.025289174 0.039688423 0.02152025
-0.07373909 -0.0698411 -0.040689062 -0.019884864 0.06414714 -0.042213917 -0.06358034 -0.0034541993
-0.012444102 0.0585067 -0.018164918 -0.012723501 -0.009549178 -0.09909404 -0.037876654 -0.06029133
-0.0018864323 -0.07130594 -0.008680512 0.11321698 0.048440136 0.0024172768 0.14108218 0.004699786
0.002385062 0.010652858 -0.049153972 0.048981465 -0.070909634 -0.16562147 0.0869479 0.057044715
-0.046439055 -0.07219938 0.0010222411 -0.043446343 0.124011345 -0.04416156 0.028004864 -0.031750627
-0.084991276 0.0961793 0.10974311 0.01464303 0.04971096 -0.009703649 -0.022057632 -0.10739118
0.06430969 -0.04650252 -0.051050413 -0.06473562 -0.051072177 0.07065981 0.021215614 -0.026228543
-0.04048277 0.0781534 0.007004387 -0.055590943 -0.061682124 -0.05095807 0.11246278 -0.082381226
-0.100291066 0.12813863 0.055991575 -0.024116836 0.021317463 0.01732815 -0.090952255 -0.0077861203
-0.062751845 -0.10419573 0.09581711 -0.04403943 -0.037883304 -0.07315835 -0.0634959 0.13578816
0.02662642 0.071492575 0.03711647 0.0818914 0.047573157 0.09150573 -0.061645523 -0.031378247
-0.058673285 0.006559956 0.12320444 0.081895545 0.0387771 0.08281506 0.053618543 0.1334673
0.105973154 0.040994108 0.051388934 -0.10622433 -0.017695663 -0.04817368 0.06669055 -0.0006583106
0.062742166 0.1532797 0.1069174 0.0968561 0.14004195 0.06909458 0.10107442 0.023235388
-0.047785778 0.11028357 -0.06606652 -0.010018963 0.10596984 0.11478447 -0.0658559 -0.11253566
0.017694687 0.08205976 0.120539986 0.023428032
00000000: 2f83 873d 435c 4f3d e8e8 c43d ce3b 5e3d
00000010: 6892 b73d 5856 c4bd 57ee fcbc ac71 40bd
00000020: ab24 5abc 8f1c 073e da6a c93d ffa3 1e3d
00000030: 3f68 ae3d 25e3 7a3d c0ec 0e3e d798 b83d
00000040: 56fa 2f3d 666f 8a3d 743f f5bd 8863 cbbb
00000050: b007 dfbc e8b0 6f3d 0f46 89bc 2520 703d
00000060: b11e 183e af90 f23d b1b4 a53d 96b9 243e
00000070: d9ab 673d 4283 ee3d baca 273d 9dd4 2bbd
00000080: 1311 0e3e 1d39 3ebd 420b 03bc db50 ef3d
00000090: 1636 db3d b2fe 87bd d393 cfbd 46fe 9dba
000000a0: c3ff 5c3d 27a1 f63d 237b cf3c f743 c33c
000000b0: 1a47 89bc 3e2b cf3c 5490 223d 3c4b b03c
000000c0: 8504 97bd da08 8fbd 93a9 26bd 95e5 a2bc
000000d0: 935f 833d 80e8 2cbd 6936 82bd d95f 62bb
000000e0: 59e2 4bbc b9a4 6f3d 98ce 94bc 3b76 50bc
000000f0: 2874 1cbc d1f1 cabd 8d24 1bbd 0bf4 76bd
00000100: 2a42 f7ba d908 92bd b538 0ebc 4ede e73d
00000110: 2a69 463d 2d6b 1e3b d977 103e aa00 9a3b
00000120: b34e 1c3b 5389 2e3c ad55 49bd caa0 483d
00000130: 1239 91bd ad98 29be be11 b23d b8a7 693d
00000140: e136 3ebd 45dd 93bd b8fc 853a cbf4 31bd
00000150: a9f9 fd3d c0e2 34bd 756a e53c f20c 02bd
00000160: e80f aebd a7f9 c43d ffc0 e03d 52e9 6f3c
00000170: b89d 4b3d 0efc 1ebc 35b2 b4bc e8ef dbbd
00000180: ccb4 833d 6d79 3ebd 3d1a 51bd 1c94 84bd
00000190: 0f31 51bd 17b6 903d 5ecc ad3c 3edd d6bc
000001a0: 43d1 25bd e40e a03d 0f85 e53b 54b3 63bd
000001b0: 65a6 7cbd 69b9 50bd e352 e63d 7db7 a8bd
000001c0: 6765 cdbd c636 033e 6c57 653d ac90 c5bc
000001d0: f6a1 ae3c c4f3 8d3c 2d45 babd b622 ffbb
000001e0: 0a84 80bd 9264 d5bd c33b c43d b062 34bd
000001f0: 862b 1bbd 0cd4 95bd 230a 82bd 0d0c 0b3e
00000200: a61f da3c b36a 923d 7107 183d aeb6 a73d
00000210: 12dc 423d 5b67 bb3d 0480 7cbd 7a86 00bd
00000220: 6653 70bd e6f4 d63b 9c52 fc3d dab8 a73d
00000230: bdd4 1e3d f19a a93d 1e9f 5b3d a7ab 083e
00000240: 7408 d93d 70e9 273d 347d 523d 248c d9bd
00000250: 7ff6 90bc c451 45bd 0e95 883d 7a92 2cba
00000260: f77e 803d 5bf5 1c3e 83f7 da3d 7e5c c63d
00000270: 2867 0f3e 7681 8d3d 1b00 cf3d 2458 be3c
00000280: 05bb 43bd 5adc e13d e24d 87bd 9426 24bc
00000290: b706 d93d 1f14 eb3d 75df 86bd 1979 e6bd
000002a0: 73f4 903c f30e a83d abdd f63d 25ec bf3c

lstm.bias_hh_l0 f4 [172]
0.06616818 0.050625097 0.09614736 0.054256253 0.08963472 -0.09586781 -0.030875368 -0.046983406
-0.013314406 0.13194488 0.098348334 0.038730618 0.08515977 0.06125178 0.139575 0.09013527
0.04296335 0.06759529 -0.11974993 -0.0062069334 -0.027225345 0.05851832 -0.01675704 0.058624405
0.14855458 0.118440025 0.08091105 0.1608642 0.05656037 0.11646129 0.04096482 -0.04195081
0.13873701 -0.046441186 -0.00799829 0.11685344 0.107036754 -0.06640376 -0.10135617 -0.0012053929
0.05395485 0.12042456 0.02532727 0.02383612 -0.016757537 0.025289174 0.039688423 0.02152025
-0.07373909 -0.0698411 -0.040689062 -0.019884864 0.06414714 -0.042213917 -0.06358034 -0.0034541993
-0.012444102 0.0585067 -0.018164918 -0.012723501 -0.009549178 -0.09909404 -0.037876654 -0.06029133
-0.0018864323 -0.07130594 -0.008680512 0.11321698 0.048440136 0.0024172768 0.14108218 0.004699786
0.002385062 0.010652858 -0.049153972 0.048981465 -0.070909634 -0.16562147 0.0869479 0.057044715
-0.046439055 -0.07219938 0.0010222411 -0.043446343 0.124011345 -0.04416156 0.028004864 -0.031750627
-0.084991276 0.0961793 0.10974311 0.01464303 0.04971096 -0.009703649 -0.022057632 -0.10739118
0.06430969 -0.04650252 -0.051050413 -0.06473562 -0.051072177 0.07065981 0.021215614 -0.026228543
-0.04048277 0.0781534 0.007004387 -0.055590943 -0.061682124 -0.05095807 0.11246278 -0.082381226
-0.100291066 0.12813863 0.055991575 -0.024116836 0.021317463 0.01732815 -0.090952255 -0.0077861203
-0.062751845 -0.10419573 0.09581711 -0.04403943 -0.037883304 -0.07315835 -0.0634959 0.13578816
0.02662642 0.071492575 0.03711647 0.0818914 0.047573157 0.09150573 -0.061645523 -0.031378247
-0.058673285 0.006559956 0.12320444 0.081895545 0.0387771 0.08281506 0.053618543 0.1334673
0.105973154 0.040994108 0.051388934 -0.10622433 -0.017695663 -0.04817368 0.06669055 -0.0006583106
0.062742166 0.1532797 0.1069174 0.0968561 0.14004195 0.06909458 0.10107442 0.023235388
-0.047785778 0.11028357 -0.06606652 -0.010018963 0.10596984 0.11478447 -0.0658559 -0.11253566
0.017694687 0.08205976 0.120539986 0.023428032
00000000: 2f83 873d 435c 4f3d e8e8 c43d ce3b 5e3d
00000010: 6892 b73d 5856 c4bd 57ee fcbc ac71 40bd
00000020: ab24 5abc 8f1c 073e da6a c93d ffa3 1e3d
00000030: 3f68 ae3d 25e3 7a3d c0ec 0e3e d798 b83d
00000040: 56fa 2f3d 666f 8a3d 743f f5bd 8863 cbbb
00000050: b007 dfbc e8b0 6f3d 0f46 89bc 2520 703d
00000060: b11e 183e af90 f23d b1b4 a53d 96b9 243e
00000070: d9ab 673d 4283 ee3d baca 273d 9dd4 2bbd
00000080: 1311 0e3e 1d39 3ebd 420b 03bc db50 ef3d
00000090: 1636 db3d b2fe 87bd d393 cfbd 46fe 9dba
000000a0: c3ff 5c3d 27a1 f63d 237b cf3c f743 c33c
000000b0: 1a47 89bc 3e2b cf3c 5490 223d 3c4b b03c
000000c0: 8504 97bd da08 8fbd 93a9 26bd 95e5 a2bc
000000d0: 935f 833d 80e8 2cbd 6936 82bd d95f 62bb
000000e0: 59e2 4bbc b9a4 6f3d 98ce 94bc 3b76 50bc
000000f0: 2874 1cbc d1f1 cabd 8d24 1bbd 0bf4 76bd
00000100: 2a42 f7ba d908 92bd b538 0ebc 4ede e73d
00000110: 2a69 463d 2d6b 1e3b d977 103e aa00 9a3b
00000120: b34e 1c3b 5389 2e3c ad55 49bd caa0 483d
00000130: 1239 91bd ad98 29be be11 b23d b8a7 693d
00000140: e136 3ebd 45dd 93bd b8fc 853a cbf4 31bd
00000150: a9f9 fd3d c0e2 34bd 756a e53c f20c 02bd
00000160: e80f aebd a7f9 c43d ffc0 e03d 52e9 6f3c
00000170: b89d 4b3d 0efc 1ebc 35b2 b4bc e8ef dbbd
00000180: ccb4 833d 6d79 3ebd 3d1a 51bd 1c94 84bd
00000190: 0f31 51bd 17b6 903d 5ecc ad3c 3edd d6bc
000001a0: 43d1 25bd e40e a03d 0f85 e53b 54b3 63bd
000001b0: 65a6 7cbd 69b9 50bd e352 e63d 7db7 a8bd
000001c0: 6765 cdbd c636 033e 6c57 653d ac90 c5bc
000001d0: f6a1 ae3c c4f3 8d3c 2d45 babd b622 ffbb
000001e0: 0a84 80bd 9264 d5bd c33b c43d b062 34bd
000001f0: 862b 1bbd 0cd4 95bd 230a 82bd 0d0c 0b3e
00000200: a61f da3c b36a 923d 7107 183d aeb6 a73d
00000210: 12dc 423d 5b67 bb3d 0480 7cbd 7a86 00bd
00000220: 6653 70bd e6f4 d63b 9c52 fc3d dab8 a73d
00000230: bdd4 1e3d f19a a93d 1e9f 5b3d a7ab 083e
00000240: 7408 d93d 70e9 273d 347d 523d 248c d9bd
00000250: 7ff6 90bc c451 45bd 0e95 883d 7a92 2cba
00000260: f77e 803d 5bf5 1c3e 83f7 da3d 7e5c c63d
00000270: 2867 0f3e 7681 8d3d 1b00 cf3d 2458 be3c
00000280: 05bb 43bd 5adc e13d e24d 87bd 9426 24bc
00000290: b706 d93d 1f14 eb3d 75df 86bd 1979 e6bd
000002a0: 73f4 903c f30e a83d abdd f63d 25ec bf3c

lstm.weight_ih_l1 f4 [172, 43]
0.01176644 0.057003573 -0.009270055 -0.07736317 -0.01066969 -0.07531859 0.13899009 0.008633224
-0.0075734593 0.15487292 -0.05819736 -0.08183516 -0.10668221 0.22410165 0.07900386 -0.13169508
-0.08046421 0.15698166 -0.022409465 -0.0043207807 -0.12975088 -0.089481555 0.051906046 -0.11616263
-0.064382054 0.19566365 0.016134512 -0.1997568 -0.09699342 0.02737838 -0.06027884 -0.19010735
0.07026414 0.018640539 -0.17635086 0.06440067 0.026476355 0.2032221 -0.17173283 0.020849956
-0.12336066 -0.095286705 -0.018634483 0.011501883 0.09943166 -0.048450533 -0.0039967466 0.13741331
0.10669351 0.10217724 -0.059780583 0.013325827 -0.118064076 0.058223695 0.062684335 0.0041543962
0.051002096 0.06180289 0.031626854 -0.1024834 0.002518907 -0.04425509 0.16948485 -0.025361162
-0.017204816 0.26250908 -0.11616288 0.011572917 -0.010075819 0.045905057 0.02387301 0.13053724
0.05638003 0.061568886 0.042353846 -0.030574342 0.023171987 0.025180774 -0.11137501 0.042888604
0.030476985 0.11402645 0.024525987 -0.24845518 -0.059755195 -0.09584349 -0.008734968 -0.06414657
0.09268338 -0.07837617 -0.26575086 0.082773775 -0.04320407 -0.10563605 0.05913873 0.01430258
0.083075374 -0.042615723 -0.09376062 -0.018015267 0.069910355 -0.20680013 -0.09482741 -0.099135295
-0.013208136 0.008452668 -0.028421447 0.02992765 -0.1770694 0.030036546 0.06418511 0.16900206
-0.09023476 -0.095338345 -0.14747012 0.004009046 -0.020565486 -0.006498718 0.09540186 0.08464357
0.002605699 0.108700834 -0.014110659 0.15893647 -0.02266008 -0.076945774 0.09934676 -0.01404506
-0.009921626 -0.02774972 -0.07547584 0.087844945 -0.22191939 -0.13496324 0.019877508 0.14827947
-0.0040686387 -0.105814986 0.045846257 -0.08880042 0.16033572 -0.09114955 0.05885904 -0.008627536
0.16252159 -0.03923482 0.072981626 -0.01657036 -0.075106695 -0.018814398 -0.021439346 -0.024130989
0.19284354 -0.033705167 -0.13187686 0.027592031 -0.20221965 0.12751271 0.06858387 -0.004483317
-0.070726894 0.06324296 -0.017792238 0.04285657 -0.0655268 0.16946527 0.20684446 0.09171571
-0.020806178 -0.018239964 0.05872126 0.06900871 -0.08021985 -0.021914748 0.060771126 -0.102682374
-0.14342676 -0.07268177 0.13111973 -0.031952757 -0.009475016 0.023934053 -0.06491138 0.02217766
0.05436586 -0.085953236 0.06655236 -0.16484395 0.021449424 -0.005083076 -0.08074908 0.06483458
-0.060438804 0.040901776 -0.09145045 0.21980101 -0.15492253 0.12703735 0.18794018 -0.097164206
0.03511921 0.037854735 0.001006431 0.04254001 0.10809999 0.08274633 -0.06305998 0.090101264
-0.14415438 0.065166585 -0.14206569 0.02093651 0.04754917 -0.32175824 -0.060299486 -0.006270339
0.15479666 -0.10401554 0.018050754 -0.08982452 0.13792883 -0.04136226 -0.042688705 0.024243355
0.15120266 0.019075546 -0.07426273 0.022324199 -0.013906811 0.043764666 0.09756175 0.10400789
-0.025556328 0.012966173 -0.104958184 -0.07668245 0.12980644 0.030339552 -0.07445745 -0.14554273
-0.062102117 -0.14570297 -0.0874837 0.06823552 0.18297273 0.04736131 -0.28549838 0.054288458
0.12287677 0.17534998 0.08772352 0.1437013 -0.056050673 0.049754616 0.11017971 0.09672133
00000000: 07c8 403c 947c 693d 6ee1 17bc 9570 9ebd
00000010: eccf 2ebc a240 9abd 6b53 0e3e 5e72 0d3c
00000020: c82a f8bb 0297 1e3e 5b60 6ebd 3199 a7bd
00000030: 347c dabd e77a 653e c7cc a13d 13db 06be
00000040: 6bca a4bd cdbf 203e 0e94 b7bc 5695 8dbb
00000050: 6add 04be 1b42 b7bd 6f9b 543d ace6 edbd
00000060: bdda 83bd 0d5c 483e 862c 843c 0c8d 4cbe
00000070: 7ca4 c6bd a048 e03c f2e6 76bd 80ab 42be
00000080: a5e6 8f3d 0bb4 983c 5295 34be 80e4 833d
00000090: f1e4 d83c 7419 503e bbda 2fbe 87cd aa3c
000000a0: 84a4 fcbd ad25 c3bd 58a7 98bc 6572 3c3c
000000b0: d3a2 cb3d 1174 46bd 24f7 82bb 13b6 0c3e
000000c0: 2182 da3d 4d42 d13d 7cdc 74bd 9254 5a3c
000000d0: 94cb f1bd f87b 6e3d a560 803d 9a21 883b
000000e0: 93e7 503d 0725 7d3d 298b 013d d1e2 d1bd
000000f0: 3f14 253b d344 35bd 708d 2d3e 36c2 cfbc
00000100: 1df1 8cbc 9767 863e cee6 edbd 559c 3d3c
00000110: 0c15 25bc f106 3c3d 5591 c33c 8eab 053e
00000120: bfee 663d a82f 7c3d 3a7b 2d3d 0b77 fabc
00000130: 2ed3 bd3c e947 ce3c 9518 e4bd f6ab 2f3d
00000140: dfaa f93c b386 e93d b9ea c83c 096b 7ebe
00000150: ddc1 74bd 9749 c4bd 1c1d 0fbc 475f 83bd
00000160: c9d0 bd3d af83 a0bd 7f10 88be 4c85 a93d
00000170: c0f6 30bd b757 d8bd 743b 723d 5e55 6a3c
00000180: 6c23 aa3d d38d 2ebd 9105 c0bd c194 93bc
00000190: 292d 8f3d 6ac3 53be e034 c2bd 7207 cbbd
000001a0: f066 58bc 0f7d 0a3c 18d4 e8bc d52a f53c
000001b0: ae51 35be 340f f63c 7c73 833d e00e 2d3e
000001c0: 00cd b8bd c040 c3bd 6802 17be 515e 833b
000001d0: f378 a8bc 33f3 d4bb 0d62 c33d 9c59 ad3d
000001e0: 60c4 2a3b 8b9e de3d 6530 67bc 3ec0 223e
000001f0: a2a1 b9bc bf95 9dbd 5076 cb3d 401d 66bc
00000200: 518e 22bc 6153 e3bc 1493 9abd 0de8 b33d
00000210: d63e 63be ce33 0abe 28d6 a23c 93d6 173e
00000220: 3752 85bb 87b5 d8bd 49c9 3b3d ffdc b5bd
00000230: 0c2f 243e 9eac babd 2d16 713d 825a 0dbc
00000240: 0f6c 263e b1b4 20bd 6477 953d 90be 87bc
00000250: 8ad1 99bd a720 9abc 91a1 afbc 5aae c5bc
00000260: c778 453e 6e0e 0abd ba0a 07be af08 e23c
00000270: ab12 4fbe b192 023e b375 8c3d cae8 92bb
00000280: 43d9 90bd 8685 813d 07c1 91bc 5f8a 2f3d
00000290: ea32 86bd 4e88 2d3e 09cf 533e 72d5 bb3d
000002a0: b871 aabc fa6b 95bc b485 703d 7054 8d3d
000002b0: 4e4a a4bd 8f86 b3bc 25eb 783d 234b d2bd
000002c0: 77de 12be 2eda 94bd 4044 063e e5e0 02bd
000002d0: 193d 1bbc 5911 c43c 42f0 84bd edad b53c
000002e0: bcae 5e3d 4008 b0bd 9b4c 883d dacc 28be
000002f0: b4b6 af3c ef8f a6bb c65f a5bd fec7 843d
00000300: ae8e 77bd 9f88 273d 604a bbbd 8413 613e
00000310: 03a4 1ebe 1416 023e 6473 403e 07fe c6bd
00000320: 29d9 0f3d 910d 1b3d 38ea 833a 6f3e 2e3d
00000330: 8763 dd3d e876 a93d 9725 81bd 0387 b83d
00000340: 359d 13be 0f76 853d ab79 11be 0b83 ab3c
00000350: ebc2 423d 7fbd a4be 98fc 76bd 6a77 cdbb
00000360: 0483 1e3e 1906 d5bd 2ddf 933c ebf5 b7bd
00000370: 373d 0d3e 796b 29bd 5ada 2ebd 009a c63c
00000380: dfd4 1a3e 5244 9c3c 0f17 98bd 3de1 b63c
00000390: 65d9 63bc 9442 333d 74ce c73d 1702 d53d
000003a0: 815b d1bc 1270 543c 51f4 d6bd b00b 9dbd
000003b0: fbeb 043e a78a f83c 267d 98bd 2709 15be
000003c0: ca5e 7ebd 2933 15be a72a b3bd 10bf 8b3d
000003d0: 345d 3b3e effd 413d d82c 92be 935d 5e3d
000003e0: d1a6 fb3d f28e 333e 64a8 b33d 6f26 133e
000003f0: 6495 65bd 7fcb 4b3d e6a5 e13d d515 c63d

lstm.weight_hh_l1 f4 [172, 43]
0.21117586 -0.040824186 0.08065102 -0.0056762304 -0.02638703 0.046136625 0.058265127 0.04789803
0.118735485 -0.1232097 -0.10675564 0.03349554 0.11227409 0.07673425 0.02948386 -0.058737747
-0.0026895173 0.11142894 -0.0118338615 0.08939086 0.021700494 -0.022450985 -0.06219557 0.079945
-0.04362058 0.054961894 -0.1251464 0.031699717 0.0057106437 -0.0010623443 -0.0640352 0.0016818079
0.050581694 0.077058636 -0.0027794866 -0.10343858 0.013668014 0.07588476 -0.08799172 0.01244883
-0.22751318 -0.0786589 0.04598454 0.036306884 0.038050365 0.15430553 0.09533265 -0.09989047
-0.010084174 0.14092875 0.093336925 0.03747636 -0.13461223 -0.03867908 0.20976187 -0.04457912
0.01106312 0.03604425 -0.11621927 0.07702351 0.064660475 -0.07823666 0.122908905 0.11462396
0.07918115 0.07448089 0.12112366 -0.0722757 0.009667099 -0.0042238184 -0.10933724 -0.1067139
0.079238534 -0.0729705 -0.11687659 -0.060169227 0.17031801 -0.067155465 0.101892166 0.19738536
0.007833815 -0.17164162 -0.11919498 -0.09729686 -0.1757714 0.13327785 -0.004428467 -0.13675523
0.117513895 -0.08859694 0.04712409 0.21197861 -0.019624088 -0.105448104 -0.16481207 0.12566102
0.11420996 0.08772864 -0.25980875 0.07034295 -0.05851603 0.025275707 0.0031094302 0.12116078
-0.0427264 -0.10004125 0.15320286 -0.1407204 0.076983266 0.017627403 -0.110953584 0.0052160486
-0.057540853 0.1336587 0.11534952 0.1255676 -0.060793374 -0.10640769 0.05595545 0.036436904
-0.053627823 -0.17990267 -0.13384794 -0.01399298 -0.01097351 -0.128784 -0.15577738 0.17371404
-0.16305715 0.09787036 0.048062995 -0.0022647528 -0.09439202 -0.11481926 0.03896177 -0.06693947
-0.1536259 0.14545546 -0.13370807 -0.10962712 -0.004584566 -0.006043758 -0.094411366 0.19732438
0.020112693 0.028559508 -0.11770626 -0.112369455 0.092309736 -0.11070001 0.0043809144 -0.11253909
-0.047059286 0.11474485 0.036247645 0.05771762 -0.044909682 -0.12814362 0.019752938 0.073333874
0.044131584 0.09439038 -0.21794628 0.0020086316 -0.018384524 -0.15469827 0.13706996 -0.044018608
-0.011774107 -0.050216157 0.014845075 -0.18358947 -0.07599576 0.074773476 -0.17792797 0.004755975
0.11681806 -0.0018607815 -0.16478479 0.16858244 -0.022757543 0.1191161 0.030755974 0.086361654
0.015107069 0.17149842 0.083300985 0.10081316 -0.0014648867 0.027817821 0.03471809 -0.09370393
-0.056909833 -0.088908635 0.073208705 0.16440117 -0.10190579 -0.07562591 0.05930613 0.08548093
0.019310739 0.019292338 -0.07057285 -0.018266441 0.015399283 -0.029621908 0.0661838 -0.090411834
0.0015403293 0.044049095 -0.004965852 0.03416424 -0.13255355 0.15360817 -0.009933261 -0.04400177
0.0070116846 0.0030924445 0.04727178 0.24178487 0.13835074 -0.04034357 0.053075533 -0.011051962
0.05873133 0.10279 0.046341065 -0.0710526 0.011305641 0.09483172 -0.06942412 -0.16950929
-0.0025233636 0.08341822 0.13459527 0.03916529 0.026281144 -0.12803622 0.05113438 -0.27790025
-0.06069901 0.14157067 -0.063937776 -0.07992418 -0.059872184 -0.043618005 -0.053604174 -0.05298741
-0.048325405 -0.013518506 -0.07424785 0.026011633 0.059017383 0.09054347 0.16598721 -0.1809632
00000000: 7c3e 583e 4337 27bd 5d2c a53d acff b9bb
00000010: 9d29 d8bc c2f9 3c3d 6aa7 6e3d ba30 443d
00000020: 972b f33d 5e55 fcbd b3a2 dabd 9f32 093d
00000030: f5ef e53d d926 9d3d 2388 f13c fe96 70bd
00000040: 9d42 30bb db34 e43d d0e2 41bc 8e12 b73d
00000050: 3cc5 b13c 21eb b7bc c8c0 7ebd 34ba a33d
00000060: 7eab 32bd b91f 613d 6126 00be 90d7 013d
00000070: 5a20 bb3b 5c3e 8bba e324 83bd 1c70 dc3a
00000080: c02e 4f3d ebd0 9d3d 0c28 36bb 9bd7 d3bd
00000090: ceef 5f3c 7869 9b3d 0135 b4bd 2df6 4b3c
000000a0: 37f9 68be eb17 a1bd 495a 3c3d 87b6 143d
000000b0: b3da 1b3d 4502 1e3e c43d c33d 6093 ccbd
000000c0: 1738 25bc a04f 103e 6e27 bf3d d080 193d
000000d0: cad7 09be f46d 1ebd d1cb 563e 9898 36bd
000000e0: 1742 353c 23a3 133d 5e04 eebd 81be 9d3d
000000f0: b66c 843d 8b3a a0bd aab7 fb3d f7bf ea3d
00000100: ba29 a23d 7089 983d ae0f f83d 4805 94bd
00000110: c162 1e3c f567 8abb 34ec dfbd d18c dabd
00000120: d047 a23d 8f71 95bd fe5c efbd 0274 76bd
00000130: d867 2e3e ce88 89bd d7ac d03d 631f 4a3e
00000140: 6759 003c d2c2 2fbe 7f1c f4bd 9343 c7bd
00000150: 6bfd 33be fd79 083e ac1c 91bb 9009 0cbe
00000160: 20ab f03d 5072 b5bd 3105 413d ec10 593e
00000170: b2c2 a0bc 2df5 d7bd 7fc4 28be 48ad 003e
00000180: e9e6 e93d 13ab b33d a705 85be f70f 903d
00000190: 81ae 6fbd 000f cf3c 95c7 4b3b 2523 f83d
000001a0: e101 2fbd 6de2 ccbd 36e1 1c3e 0219 10be
000001b0: 67a9 9d3d 5867 903c a23b e3bd 63eb aa3b
000001c0: f5af 6bbd d4dd 083e 5f3c ec3d cb94 003e
000001d0: 7902 79bd 46ec d9bd 8b31 653d dd3e 153d
000001e0: d9a8 5bbd 6838 38be 6f0f 09be d042 65bc
000001f0: 3dca 33bc f4df 03be 1b84 1fbe 18e2 313e
00000200: 74f8 26be 4170 c83d b4dd 443d 3f6c 14bb
00000210: 9a50 c1bd 5c26 ebbd 6096 1f3d 9017 89bd
00000220: 1c50 1dbe 47f2 143e c5ea 08be 2f84 e0bd
00000230: 213a 96bb b70a c6bb bf5a c1bd 670f 4a3e
00000240: 60c3 a43c a1f5 e93c fb0f f1bd f521 e6bd
00000250: e30c bd3d b0b6 e2bd c68d 8f3b e57a e6bd
00000260: 3dc1 40bd 59ff ea3d 6978 143d 5069 6c3d
00000270: 37f3 37bd 1538 03be ead0 a13c 1230 963d
00000280: 52c3 343d be4f c13d 4f2d 5fbe 3fa3 033b
00000290: 249b 96bc 3969 1ebe 115c 0c3e db4c 34bd
000002a0: 2fe8 40bc 75af 4dbd c238 733c e1fe 3bbe
000002b0: aaa3 9bbd d622 993d c032 36be 03d8 9b3b
000002c0: 4f3e ef3d 77e5 f3ba 58bd 28be e0a0 2c3e
000002d0: 076e babc 24f3 f33d f4f3 fb3c 61de b03d
000002e0: a483 773c 489d 2f3e b599 aa3d 2177 ce3d
000002f0: 7101 c0ba 33e2 e33c 8e34 0e3d d9e7 bfbd
00000300: 491a 69bd bb15 b6bd 72ee 953d c858 283e
00000310: fcb3 d0bd c2e1 9abd fcea 723d a010 af3d
00000320: 8e31 9e3c f70a 9e3c 8088 90bd 81a3 95bc
00000330: 464d 7c3c a5a9 f2bc 5f8b 873d d729 b9bd
00000340: e0e4 c93a d36c 343d 96b8 a2bb cdef 0b3d
00000350: 1ebc 07be 764b 1d3e 1ebf 22bc 333b 34bd
00000360: 46c2 e53b 9caa 4a3b 0ea0 413d 7496 773e
00000370: d1ab 0d3e 4d3f 25bd bb65 593d 4a13 35bc
00000380: 4390 703d 9083 d23d 21d0 3d3d 0784 91bd
00000390: 4c3b 393c 2237 c23d 3c2e 8ebd d893 2dbe
000003a0: 045f 25bb 2cd7 aa3d 58d3 093e c86b 203d
000003b0: 8e4b d73c ed1b 03be 4972 513d f148 8ebe
000003c0: 869f 78bd e7f7 103e cff1 82bd 4aaf a3bd
000003d0: 893c 75bd cba8 32bd 0d90 5bbd 5409 59bd
000003e0: dcf0 45bd b97c 5dbc 420f 98bd 5916 d53c
000003f0: 36bc 713d db6e b93d 8df8 293e 6b4e 39be

lstm.bias_ih_l1 f4 [172]
0.0716112 0.039569527 0.049470656 -0.013380469 0.1072476 0.067079365 -0.016220804 -0.03434878
0.049339514 -0.07033239 0.05912702 -0.023581285 0.015074055 -0.08314445 0.037572697 -0.059429426
0.06374446 -0.022486603 0.014744627 -0.009609204 0.053073354 -0.07575228 -0.0076415166 -0.100233614
0.08029474 0.07396089 0.024179693 0.13330777 0.055845212 0.051312096 -0.023237651 -0.032247726
0.055776972 0.07078501 -0.08861366 0.07244313 0.05391177 0.1161663 0.105327755 -0.013644981
0.068951495 -0.11759758 -0.03246296 -0.07067346 0.08614097 0.021076245 -0.056614522 0.026656508
0.021809699 -0.09877668 0.0037714955 -0.09078011 -0.019680677 -0.08492807 -0.01091325 0.01630672
-0.034294885 0.063162416 -0.0130973775 0.15501821 -0.03209744 0.025914958 0.012667607 -0.0035228694
-0.040279914 -0.019710572 -0.021734923 -0.04686662 -0.017498983 -0.008884423 0.025060296 0.0028785313
-0.04803103 -0.041367296 -0.012939858 -0.02217565 -0.020845557 -0.055717107 0.012069328 -0.033701174
0.015494899 0.008840458 -0.038049858 0.0021605815 -0.085802875 -0.079241 -0.08989837 -0.03677836
0.0038714434 -0.10331636 0.07108234 -0.08045493 -0.031362057 -0.0864243 -0.013623574 -0.08948498
0.01970919 0.0141586475 -0.007885325 -0.051525548 -0.11580492 0.028553326 -0.10428342 0.05294484
0.092848524 0.0794762 0.033772986 -0.09687392 -0.051426303 -0.009449128 -0.03411547 -0.08394701
0.006344692 -0.04652116 0.025905892 0.04829703 0.0030125426 -0.056513067 0.016904932 0.0073452885
0.04427755 0.025084857 0.04920277 0.033807013 0.028614957 -0.009517217 -0.10004782 -0.005146877
-0.033009835 0.06981168 0.04331401 0.07071764 -0.0072896304 0.119935244 0.081297986 -0.008237173
-0.028383445 0.045587286 -0.078249335 0.01505295 -0.025676487 0.041182015 -0.08684633 0.036968682
-0.060141105 0.045345448 -0.011318493 0.020585798 -0.007494269 0.06436876 -0.039129175 -0.023937652
-0.10092452 0.048159014 0.07121592 0.012512893 0.12941739 0.068413615 0.032405447 -0.029680137
-0.054436624 0.0340235 0.06437204 -0.090862796 0.05127859 0.051116884 0.11054006 0.08595477
-0.03133349 0.069626026 -0.110816404 -0.03773048
00000000: e5a8 923d a813 223d bea1 4a3d c139 5bbc
00000010: a1a4 db3d e860 893d 7ee1 84bc 4eb1 0cbd
00000020: 3b18 4a3d 6e0a 90bd 2d2f 723d 8a2d c1bc
00000030: 2bf9 763c a347 aabd d4e5 193d 456c 73bd
00000040: 758c 823d d335 b8bc 7393 713c ec6f 1dbc
00000050: 7263 593d 0324 9bbd b065 fabb 4847 cdbd
00000060: 9271 a43d cf78 973d 7e14 c63c d581 083e
00000070: f3bd 643d a22c 523d e35c bebc 3116 04bd
00000080: 6576 643d bbf7 903d 147b b5bd 105d 943d
00000090: 97d2 5c3d 99e8 ed3d 14b6 d73d 338f 5fbc
000000a0: 7136 8d3d 00d7 f0bd e1f7 04bd 3fbd 90bd
000000b0: ad6a b03d 17a8 ac3c a1e4 67bd c05e da3c
000000c0: 41aa b23c 6e4b cabd 322b 773b ecea b9bd
000000d0: 5f39 a1bc c5ee adbd 7dcd 32bc ac95 853c
000000e0: cb78 0cbd 4c5b 813d 6296 56bc 18bd 1e3e
000000f0: 9b78 03bd 9b4b d43c cb8b 4f3c f1df 66bb
00000100: 8dfc 24bd 1178 a1bc 700d b2bc 37f7 3fbd
00000110: 075a 8fbc f98f 11bc 404b cd3c bea5 3c3b
00000120: 2fbc 44bd c170 29bd b301 54bc b5a9 b5bc
00000130: 4dc4 aabc 9f37 64bd 6ebe 453c 3e0a 0abd
00000140: 51de 7d3c 91d7 103c 2bda 1bbd 8b98 0d3b
00000150: 6bb9 afbd 1b49 a2bd a31c b8bd e8a4 16bd
00000160: 0bb8 7d3b 8797 d3bd 9e93 913d 8ec5 a4bd
00000170: 8075 00bd 39ff b0bd 6935 5fbc e743 b7bd
00000180: 2b75 a13c acf9 673c 7331 01bc 740c 53bd
00000190: 212b edbd aae8 e93c 8c92 d5bd b0dc 583d
000001a0: 5e27 be3d 6bc4 a23d 8b55 0a3d d565 c6bd
000001b0: 63a4 52bd 84d0 1abc aabc 0bbd 69ec abbd
000001c0: 22e7 cf3b f98c 3ebd 9838 d43c 1bd3 453d
000001d0: 146e 453b 3f7a 67bd 367c 8a3c bfb0 f03b
000001e0: 605c 353d c27e cd3c d888 493d 3979 0a3d
000001f0: ea69 ea3c 1aee 1bbc dfe5 ccbd 22a7 a8bb
00000200: 5235 07bd 6df9 8e3d 086a 313d 69d4 903d
00000210: dadd eebb 9ca0 f53d 8f7f a63d 35f5 06bc
00000220: 6684 e8bc bcb9 3a3d 3041 a0bd a6a0 763c
00000230: 7f57 d2bc 79ae 283d 7ddc b1bd 796c 173d
00000240: 8556 76bd 26bc 393d 3371 39bc 8ca3 a83c
00000250: 7c92 f5bb c5d3 833d ea45 20bd e518 c4bc
00000260: 84b1 cebd 6342 453d a7d9 913d e102 4d3c
00000270: fe85 043e 701c 8c3d 93bb 043d c223 f3bc
00000280: f0f8 5ebd 3a5c 0b3d 7dd5 833d 4616 babd
00000290: 8009 523d f05f 513d d462 e23d 0e09 b03d
000002a0: 8c57 00bd 1798 8e3d b6f3 e2bd 478b 1abd

lstm.bias_hh_l1 f4 [172]
0.0716112 0.039569527 0.049470656 -0.013380469 0.1072476 0.067079365 -0.016220804 -0.03434878
0.049339514 -0.07033239 0.05912702 -0.023581285 0.015074055 -0.08314445 0.037572697 -0.059429426
0.06374446 -0.022486603 0.014744627 -0.009609204 0.053073354 -0.07575228 -0.0076415166 -0.100233614
0.08029474 0.07396089 0.024179693 0.13330777 0.055845212 0.051312096 -0.023237651 -0.032247726
0.055776972 0.07078501 -0.08861366 0.07244313 0.05391177 0.1161663 0.105327755 -0.013644981
0.068951495 -0.11759758 -0.03246296 -0.07067346 0.08614097 0.021076245 -0.056614522 0.026656508
0.021809699 -0.09877668 0.0037714955 -0.09078011 -0.019680677 -0.08492807 -0.01091325 0.01630672
-0.034294885 0.063162416 -0.0130973775 0.15501821 -0.03209744 0.025914958 0.012667607 -0.0035228694
-0.040279914 -0.019710572 -0.021734923 -0.04686662 -0.017498983 -0.008884423 0.025060296 0.0028785313
-0.04803103 -0.041367296 -0.012939858 -0.02217565 -0.020845557 -0.055717107 0.012069328 -0.033701174
0.015494899 0.008840458 -0.038049858 0.0021605815 -0.085802875 -0.079241 -0.08989837 -0.03677836
0.0038714434 -0.10331636 0.07108234 -0.08045493 -0.031362057 -0.0864243 -0.013623574 -0.08948498
0.01970919 0.0141586475 -0.007885325 -0.051525548 -0.11580492 0.028553326 -0.10428342 0.05294484
0.092848524 0.0794762 0.033772986 -0.09687392 -0.051426303 -0.009449128 -0.03411547 -0.08394701
0.006344692 -0.04652116 0.025905892 0.04829703 0.0030125426 -0.056513067 0.016904932 0.0073452885
0.04427755 0.025084857 0.04920277 0.033807013 0.028614957 -0.009517217 -0.10004782 -0.005146877
-0.033009835 0.06981168 0.04331401 0.07071764 -0.0072896304 0.119935244 0.081297986 -0.008237173
-0.028383445 0.045587286 -0.078249335 0.01505295 -0.025676487 0.041182015 -0.08684633 0.036968682
-0.060141105 0.045345448 -0.011318493 0.020585798 -0.007494269 0.06436876 -0.039129175 -0.023937652
-0.10092452 0.048159014 0.07121592 0.012512893 0.12941739 0.068413615 0.032405447 -0.029680137
-0.054436624 0.0340235 0.06437204 -0.090862796 0.05127859 0.051116884 0.11054006 0.08595477
-0.03133349 0.069626026 -0.110816404 -0.03773048
00000000: e5a8 923d a813 223d bea1 4a3d c139 5bbc
00000010: a1a4 db3d e860 893d 7ee1 84bc 4eb1 0cbd
00000020: 3b18 4a3d 6e0a 90bd 2d2f 723d 8a2d c1bc
00000030: 2bf9 763c a347 aabd d4e5 193d 456c 73bd
00000040: 758c 823d d335 b8bc 7393 713c ec6f 1dbc
00000050: 7263 593d 0324 9bbd b065 fabb 4847 cdbd
00000060: 9271 a43d cf78 973d 7e14 c63c d581 083e
00000070: f3bd 643d a22c 523d e35c bebc 3116 04bd
00000080: 6576 643d bbf7 903d 147b b5bd 105d 943d
00000090: 97d2 5c3d 99e8 ed3d 14b6 d73d 338f 5fbc
000000a0: 7136 8d3d 00d7 f0bd e1f7 04bd 3fbd 90bd
000000b0: ad6a b03d 17a8 ac3c a1e4 67bd c05e da3c
000000c0: 41aa b23c 6e4b cabd 322b 773b ecea b9bd
000000d0: 5f39 a1bc c5ee adbd 7dcd 32bc ac95 853c
000000e0: cb78 0cbd 4c5b 813d 6296 56bc 18bd 1e3e
000000f0: 9b78 03bd 9b4b d43c cb8b 4f3c f1df 66bb
00000100: 8dfc 24bd 1178 a1bc 700d b2bc 37f7 3fbd
00000110: 075a 8fbc f98f 11bc 404b cd3c bea5 3c3b
00000120: 2fbc 44bd c170 29bd b301 54bc b5a9 b5bc
00000130: 4dc4 aabc 9f37 64bd 6ebe 453c 3e0a 0abd
00000140: 51de 7d3c 91d7 103c 2bda 1bbd 8b98 0d3b
00000150: 6bb9 afbd 1b49 a2bd a31c b8bd e8a4 16bd
00000160: 0bb8 7d3b 8797 d3bd 9e93 913d 8ec5 a4bd
00000170: 8075 00bd 39ff b0bd 6935 5fbc e743 b7bd
00000180: 2b75 a13c acf9 673c 7331 01bc 740c 53bd
00000190: 212b edbd aae8 e93c 8c92 d5bd b0dc 583d
000001a0: 5e27 be3d 6bc4 a23d 8b55 0a3d d565 c6bd
000001b0: 63a4 52bd 84d0 1abc aabc 0bbd 69ec abbd
000001c0: 22e7 cf3b f98c 3ebd 9838 d43c 1bd3 453d
000001d0: 146e 453b 3f7a 67bd 367c 8a3c bfb0 f03b
000001e0: 605c 353d c27e cd3c d888 493d 3979 0a3d
000001f0: ea69 ea3c 1aee 1bbc dfe5 ccbd 22a7 a8bb
00000200: 5235 07bd 6df9 8e3d 086a 313d 69d4 903d
00000210: dadd eebb 9ca0 f53d 8f7f a63d 35f5 06bc
00000220: 6684 e8bc bcb9 3a3d 3041 a0bd a6a0 763c
00000230: 7f57 d2bc 79ae 283d 7ddc b1bd 796c 173d
00000240: 8556 76bd 26bc 393d 3371 39bc 8ca3 a83c
00000250: 7c92 f5bb c5d3 833d ea45 20bd e518 c4bc
00000260: 84b1 cebd 6342 453d a7d9 913d e102 4d3c
00000270: fe85 043e 701c 8c3d 93bb 043d c223 f3bc
00000280: f0f8 5ebd 3a5c 0b3d 7dd5 833d 4616 babd
00000290: 8009 523d f05f 513d d462 e23d 0e09 b03d
000002a0: 8c57 00bd 1798 8e3d b6f3 e2bd 478b 1abd

lstm.weight_ih_l2 f4 [172, 43]
-0.094802804 -0.06557872 -0.02345292 -0.07231132 -0.063845344 0.0580056 0.13805291 -0.10119532
-0.04309195 -0.14184067 0.2505833 -0.09435153 0.03827068 -0.16534261 0.043153193 0.08316609
-0.05995699 -0.029450357 -0.100492455 -0.036289684 -0.091757886 -0.15874475 -0.17498541 0.1337122
-0.02365113 -0.027278194 -0.15551251 -0.121273026 0.12922172 -0.029132137 0.015433258 -0.098676264
-0.008041656 -0.19251119 0.06374995 -0.025228545 -0.133111 0.01979523 0.028322011 0.11416901
-0.0066970643 -0.023136185 0.051044263 0.07048386 0.0863799 -0.07680145 -0.065678485 0.11338195
-0.25430313 -0.19291687 0.12560773 -0.161326 -0.022002619 0.15540107 0.0043112743 0.06798178
-0.19854373 -0.22973283 -0.10541166 -0.2719555 0.052454226 -0.15015079 -0.035839383 0.07603942
0.08052971 -0.16541812 -0.007550317 -0.20832266 -0.07069995 0.04647239 0.09632537 0.08203022
-0.07832283 0.076590315 -0.012667895 0.0023584755 0.0031957251 -0.08307628 -0.1382196 0.041116975
0.03810678 0.13776338 0.1683909 -0.11449164 0.051753867 -0.09214972 0.07478558 0.11847551
0.15660591 0.20726001 -0.13972412 0.11536745 0.14386943 0.094057836 -0.029059073 0.022095013
-0.0742752 0.0045757047 -0.002538919 -0.07899365 0.015728747 0.035419352 0.08101028 -0.20425954
0.16834445 -0.047863644 -0.017181847 0.0550065 0.11679315 -0.07706261 0.13826476 0.28290132
-0.19067408 0.2527812 -0.11886198 -0.118417926 -0.14396396 0.015354243 0.115427524 0.103354484
-0.081278995 0.17149921 -0.07060219 -0.094219096 -0.05405552 -0.18409565 0.20737962 0.0807561
0.054376513 0.11350907 0.08810951 0.1130403 0.13544597 -0.16993544 0.11984399 0.019555679
0.08185596 0.12831292 -0.031999387 0.00878998 -0.08790821 0.0921502 0.05547267 0.10979633
0.1384459 0.1900633 0.06365161 0.082362816 0.05915303 -0.12244476 -0.03570442 -0.068410605
-0.098451875 0.2812509 0.17252369 -0.023258602 -0.11236577 0.018744797 0.057351448 0.17686023
0.08109575 -0.054080863 0.079191774 -0.14807747 0.025963014 -0.07991381 -0.02765415 0.021320293
0.10937386 0.16543797 -0.028811568 -0.07692719 0.09639709 0.15334588 -0.10974563 0.07759024
-0.08755399 -0.010929997 0.030112503 -0.007530169 -0.124783546 0.060711395 0.18482842 0.114223704
-0.05784042 -0.064206265 -0.027746134 0.17527705 -0.058561604 0.07361316 -0.0033329148 0.1546759
0.12113581 0.0023646993 -0.030340452 -0.009690736 0.001052348 -0.059364945 0.19704506 -0.03584674
0.09734794 -0.038803853 -0.0028362402 -0.03788012 -0.0497169 -0.033583462 -0.16190012 -0.016902816
0.06199025 -0.110909544 -0.048401278 0.07053872 -0.23165114 -0.0074151126 0.06749568 0.005792386
0.09786525 0.008689568 0.081131436 -0.07870938 -0.0063926443 0.041698188 -0.09632897 -0.07548293
0.09082904 -0.15078223 0.10252222 0.030884078 -0.016806286 -0.11689297 -0.05760214 0.2381433
-0.015275607 0.060753495 0.026508933 -0.22242391 -0.20585717 0.116207674 0.23212707 0.14759377
-0.12937528 0.03766002 0.21252447 0.058782127 -0.04262937 -0.07620899 0.04468888 0.13205269
0.04410053 0.047408592 0.022470057 -0.06752523 -0.20072702 0.022070725 -0.15889478 -0.064179085
00000000: f927 c2bd 234e 86bd 5720 c0bc f517 94bd
00000010: 59c1 82bd 4897 6d3d be5d 0d3e 7e3f cfbd
00000020: 2f81 30bd ae3e 11be 744c 803e 603b c1bd
00000030: b7c1 1c3d 934f 29be 67c1 303d fc52 aa3d
00000040: 7695 75bd e041 f1bc fdce cdbd 7ea4 14bd
00000050: 8feb bbbd fc8d 22be 602f 33be daeb 083e
00000060: 04c0 c1bc 8576 dfbc ac3e 1fbe fe5d f8bd
00000070: b352 043e 85a6 eebc c7db 7c3c c816 cabd
00000080: 26c1 03bc a721 45be 558f 823d 18ac cebc
00000090: 404e 08be 9b29 a23c 9003 e83c 71d1 e93d
000000a0: 0c73 dbbb 1988 bdbc ca13 513d d859 903d
000000b0: f2e7 b03d 144a 9dbd 7182 86bd cc34 e83d
000000c0: 0534 82be 008c 45be 509f 003e a532 25be
000000d0: d63e b4bc 7521 1f3e 9745 8d3b 083a 8b3d
000000e0: 0c4f 4bbe 153f 6bbe 12e2 d7bd c03d 8bbe
000000f0: 3eda 563d 21c1 19be 51cc 12bd 8eba 9b3d
00000100: c3ec a43d 5e63 29be a668 f7bb 8952 55be
00000110: 23cb 90bd d559 3e3d 3c46 c53d 76ff a73d
00000120: b867 a0bd 62db 9c3d 018d 4fbc a790 1a3b
00000130: 5f6f 513b e623 aabd 7089 0dbe 466a 283d
00000140: db15 1c3d d811 0d3e aa6e 2c3e 987a eabd
00000150: ddfb 533d feb8 bcbd 2f29 993d 4aa3 f23d
00000160: 4d5d 203e f83b 543e d713 0fbe c545 ec3d
00000170: 8252 133e 65a1 c03d 4b0d eebc 9a00 b53c
00000180: 991d 98bd cbef 953b fe63 26bb 6cc7 a1bd
00000190: 93d9 803c e213 113d b8e8 a53d 6a29 51be
000001a0: 7d62 2c3e ab0c 44bd f2c0 8cbc 7f4e 613d
000001b0: 3f31 ef3d 00d3 9dbd 4795 0d3e 71d8 903e
000001c0: 1140 43be 8a6c 813e e96d f3bd 1985 f2bd
000001d0: 4a6b 13be 5d90 7b3c 4465 ec3d 84ab d33d
000001e0: 9a75 a6bd 7d9d 2f3e e297 90bd f1f5 c0bd
000001f0: 5269 5dbd 9283 3cbe 535b 543e 7463 a53d
00000200: e8b9 5e3d 7177 e83d c272 b43d ac81 e73d
00000210: 59b2 0a3e 8e03 2ebe c470 f53d 3b33 a03c
00000220: 19a4 a73d 7664 033e ca11 03bd d903 103c
00000230: 3809 b4bd 3eb9 bc3d 4f37 633d e6dc e03d
00000240: c3c4 0d3e f49f 423e c65b 823d d6ad a83d
00000250: 734a 723d 51c4 fabd cc3e 12bd dc1a 8cbd
00000260: 23a1 c9bd 1e00 903e 0daa 303e d388 bebc
00000270: 0620 e6bd b08e 993c 5ae9 6a3d d91a 353e
00000280: 8715 a63d e583 5dbd 4c2f a23d 9fa1 17be
00000290: 63b0 d43c daa9 a3bd f58a e2bc e5a7 ae3c
000002a0: 67ff df3d 9268 293e 3d06 ecbc 018c 9dbd
000002b0: d66b c53d b406 1d3e 51c2 e0bd a2e7 9e3d
000002c0: 824f b3bd bb13 33bc 7fae f63c a3bf f6bb
000002d0: 848e ffbd 83ac 783d a943 3d3e 1eee e93d
000002e0: 14ea 6cbd 937e 83bd dc4b e3bc d47b 333e
000002f0: 4bde 6fbd 7fc2 963d 086d 5abb 5c63 1e3e
00000300: 0d16 f83d 12f9 1a3b 8a8c f8bc e5c5 1ebc
00000310: f0ee 893a a828 73bd 2ec6 493e 08d4 12bd
00000320: 5b5e c73d caf0 1ebd 37e0 39bb 2f28 1bbd
00000330: f3a3 4bbd d08e 09bd 25c9 25be c677 8abc
00000340: 7de9 7d3d 8b24 e3bd 6b40 46bd 9b76 903d
00000350: f535 6dbe 79fa f2bb 2d3b 8a3d 0ece bd3b
00000360: 946d c83d b15e 0e3c 3d28 a63d 6232 a1bd
00000370: 6379 d1bb b8cb 2a3d 1f48 c5bd cb96 9abd
00000380: 9304 ba3d a866 1abe 2bf7 d13d 9b00 fd3c
00000390: 56ad 89bc 9565 efbd 39f0 6bbd d6db 733e
000003a0: 8a46 7abc a8d8 783d 4329 d93c 18c3 63be
000003b0: 39cc 52be 4afe ed3d b8b2 6d3e d222 173e
000003c0: f47a 04be 6541 1a3d 04a0 593e 87c5 703d
000003d0: 229c 2ebd 7513 9cbd b00b 373d d238 073e
000003e0: c2a2 343d 832f 423d 2013 b83c ab4a 8abd
000003f0: 628b 4dbe aacd b43c 50b5 22be 5370 83bd
