models/20250302_190251_optimized_lstm.pt (torch, 114998 bytes, 17 tensors)

input_bn.weight f4 [16]
000000 00 00 80 3f 00 00 80 3f 00 00 80 3f 00 00 80 3f
       1.0 1.0 1.0 1.0
000010 00 00 80 3f 00 00 80 3f 00 00 80 3f 00 00 80 3f
       1.0 1.0 1.0 1.0
000020 00 00 80 3f 00 00 80 3f 00 00 80 3f 00 00 80 3f
       1.0 1.0 1.0 1.0
000030 00 00 80 3f 00 00 80 3f 00 00 80 3f 00 00 80 3f
       1.0 1.0 1.0 1.0

input_bn.bias f4 [16]
000000 00 00 00 00 00 00 00 00 00 00 00 00 00 00 00 00
       0.0 0.0 0.0 0.0
000010 00 00 00 00 00 00 00 00 00 00 00 00 00 00 00 00
       0.0 0.0 0.0 0.0
000020 00 00 00 00 00 00 00 00 00 00 00 00 00 00 00 00
       0.0 0.0 0.0 0.0
000030 00 00 00 00 00 00 00 00 00 00 00 00 00 00 00 00
       0.0 0.0 0.0 0.0

input_bn.running_mean f4 [16]
000000 00 00 00 00 00 00 00 00 00 00 00 00 00 00 00 00
       0.0 0.0 0.0 0.0
000010 00 00 00 00 00 00 00 00 00 00 00 00 00 00 00 00
       0.0 0.0 0.0 0.0
000020 00 00 00 00 00 00 00 00 00 00 00 00 00 00 00 00
       0.0 0.0 0.0 0.0
000030 00 00 00 00 00 00 00 00 00 00 00 00 00 00 00 00
       0.0 0.0 0.0 0.0

input_bn.running_var f4 [16]
000000 00 00 80 3f 00 00 80 3f 00 00 80 3f 00 00 80 3f
       1.0 1.0 1.0 1.0
000010 00 00 80 3f 00 00 80 3f 00 00 80 3f 00 00 80 3f
       1.0 1.0 1.0 1.0
000020 00 00 80 3f 00 00 80 3f 00 00 80 3f 00 00 80 3f
       1.0 1.0 1.0 1.0
000030 00 00 80 3f 00 00 80 3f 00 00 80 3f 00 00 80 3f
       1.0 1.0 1.0 1.0

lstm.weight_ih_l0 f4 [176, 16]
000000 a2 0b 84 3d 31 09 27 3d 0a bd d1 3c bc a6 a9 3d
       0.06447531 0.04078025 0.025602836 0.08283755
000010 9d 47 41 3e d3 c8 c0 bc ca 61 82 bc af 65 e3 bd
       0.18874975 -0.02353326 -0.01591577 -0.11103379
000020 08 6e 0b bd 6e 82 a8 bd ea 6e 9a 3d be 13 5d be
       -0.03404048 -0.082280025 0.075406864 -0.21589562
000030 91 7d 00 bd 44 28 7d 3d 79 b7 33 3b fb dc e7 bd
       -0.03136975 0.06180598 0.002742259 -0.113214456
000040 e5 ba 87 be da 3a d6 bd c3 8d bf 3d 99 c9 0d 3d
       -0.26509777 -0.10460444 0.09353211 0.034616087
000050 4f ec 65 3d 7e 05 fd 3d 85 b2 b1 3d 7c 00 80 3e
       0.056133565 0.12354563 0.08676628 0.2500037
000060 84 ef 8d 3e f7 62 6e 3d 30 23 e4 3c 90 6a d8 bd
       0.27721798 0.05819985 0.02784881 -0.105672
000070 45 65 8b 3c 18 ff c8 3b c0 6c 7e 3c 2c 34 89 3d
       0.017016063 0.006133925 0.015528858 0.06699404
000080 2a df 88 bc f9 ef fb bd e0 0a b4 3c 41 18 64 be
       -0.016707975 -0.123016305 0.021977842 -0.22274877
000090 82 98 04 be 38 2c 64 3e 84 0a 17 bc b8 43 08 bd
       -0.12948802 0.22282493 -0.009218816 -0.033267707
0000a0 a7 14 30 3d 5d 9d 5f bc 4c 6c f1 3c 07 16 29 3e
       0.042988446 -0.013648358 0.029470585 0.16512309
0000b0 01 22 db 3d f2 8a e6 bd f4 3f 53 3e d0 96 87 bd
       0.10699845 -0.112569705 0.20629865 -0.06620562
0000c0 4a bc 9f bd 6d 10 3a bb 12 62 df bd d2 f6 29 3e
       -0.07799585 -0.0028391138 -0.10907377 0.1659806
0000d0 8b b9 2d bd c3 d0 cb be 9e 4f 1c 3d ab 47 6b 3d
       -0.042413276 -0.3980771 0.038161866 0.057441395
0000e0 1e 78 2d be c1 ec 3b bd 56 c6 05 be d7 e7 d6 bd
       -0.16940352 -0.045880083 -0.1306394 -0.10493439
0000f0 25 5e 06 be fb 07 4e 3d db 09 2e 3d 74 93 0a 3d
       -0.13121851 0.05030058 0.042489868 0.03383203
000100 6d 85 50 3d 08 4d c2 3d 94 24 c7 3d 57 ac 24 bc
       0.050908495 0.09487349 0.097237736 -0.010050855
000110 2e 5f e6 3b cf cd e0 3b 47 ee 96 bc 63 1c 45 3e
       0.0070303893 0.006860472 -0.018424166 0.1924911
000120 f3 2e 1b 3e f5 d4 9c bc 64 13 cd 3c 4d 7f 69 bd
       0.15154628 -0.019144515 0.02503366 -0.05700617
000130 61 71 da bd 69 ce 45 3e b6 ab 4f 3c 42 f2 a8 3d
       -0.106661566 0.1931702 0.012675216 0.08249332
000140 21 df 6a 3e 76 72 0d 3e bf 27 65 3b 4c 43 ba 3d
       0.2293668 0.13813195 0.0034966317 0.09094867
000150 4b fe a3 3a e8 2d 5e 3e 8c c5 ed bc 03 fb 73 bd
       0.0012511698 0.216972 -0.029024862 -0.059565555
000160 be ef 0f 3d 35 e3 c1 3b 0b 76 92 bd 34 94 aa 3e
       0.035140745 0.0059169778 -0.07151421 0.33316195
000170 e5 53 8c 3c 9f bd e3 3d 36 ec 10 bd a6 39 04 3e
       0.017129848 0.11120152 -0.03538152 0.12912616
000180 c4 4d 18 bc 9c ac 5a 3e 66 61 95 bb 69 6c c7 3b
       -0.0092958845 0.21354908 -0.00455873 0.0060859215
000190 f1 05 12 3c f2 76 62 3d 61 5e fc bd 02 98 7d be
       0.008912549 0.055289216 -0.12322689 -0.24765018
0001a0 4a fa 9f 3d 0e 62 bf bd 34 75 22 be 9f 29 ca 3d
       0.07811411 -0.09344874 -0.15865022 0.0987122
0001b0 03 37 42 3d c9 4a 62 bc a3 9c 91 3d f4 85 bd 3c
       0.047415745 -0.0138117755 0.07109954 0.023135163
0001c0 34 54 e1 3d 7d d0 29 bb 40 97 05 be 88 4c 4f 3d
       0.110023886 -0.0025911622 -0.13045979 0.050610095
0001d0 fd 35 53 bd 49 a6 27 bd a1 99 90 bd 70 88 8b bd
       -0.05156516 -0.040930066 -0.070605524 -0.06813133
0001e0 94 e7 84 3b 13 8b 92 bd 73 a9 36 3e a5 d0 a9 3d
       0.0040559266 -0.071554326 0.17838077 0.08291749
0001f0 12 e7 dc bd 21 0d 1d bc 5b e2 93 bd 77 55 9a bd
       -0.10786261 -0.00958565 -0.07220908 -0.075358324
000200 bc 73 a4 bd 51 0a 3e bc 08 65 2e be 5d 2d 83 3d
       -0.08029887 -0.011599139 -0.17030728 0.06405137
000210 9d a4 3e bd 04 d6 b5 bc 38 19 e8 3d 98 ca 1f 3c
       -0.046543706 -0.022196777 0.11332935 0.009752892
000220 fe 14 2c bb 8c 03 87 3c 73 b1 e1 3d a5 ad 74 3e
       -0.002625763 0.016481183 0.11020174 0.23894365
000230 8c 47 87 3d 2e a9 bc 3b 3c 36 8d 3e 1a 4e bb bd
       0.06605443 0.0057574725 0.2758044 -0.09145756
000240 ea 90 03 be 5e b4 41 bd 33 dc b0 ba 2a 6b bd 3d
       -0.12848249 -0.047291152 -0.0013493359 0.092489555
000250 d4 ac cb bd 47 ad d3 bc 07 87 aa 3d 67 af 76 3d
       -0.09945074 -0.025839461 0.08326536 0.06022587
000260 ff 89 96 3d 1f 35 4f bc a7 66 77 3d 0c a6 1a 3d
       0.073505394 -0.012646942 0.06040063 0.03775601
000270 9a 41 19 3e 78 b1 05 3e 7a c7 6e 3c d3 f5 3e be
       0.14966431 0.1305598 0.014573926 -0.18648462
000280 12 64 2b bd 58 1e 2e be 54 b6 9f 3d c2 12 f3 3d
       -0.04184348 -0.17003763 0.07798448 0.11868812
000290 3f c0 ce 3d 03 7c 50 be f8 e1 12 3c 03 69 a7 bd
       0.10095262 -0.20359807 0.008965008 -0.08174326
0002a0 44 a4 a1 bd 3e 5d 1b be c2 b6 bc 3a e7 5c 1f be
       -0.07892659 -0.15172288 0.0014397728 -0.15562783
0002b0 84 a8 e4 bc 8c ea 94 3d f0 8d 5f bc 69 e8 88 3b
       -0.027912386 0.07271299 -0.01364468 0.004178096
0002c0 77 55 7f 3d 0b d8 94 3d 9a e8 2d be d3 0b 25 3d
       0.062337365 0.072677694 -0.16983262 0.04029448
0002d0 44 46 41 bd 99 87 07 3d e0 0a eb bd 6b af 96 3d
       -0.04718615 0.0330883 -0.114766836 0.07357677
0002e0 d1 06 08 3c b6 ab 9d bc 95 e0 62 bc 58 c3 5f 3e
       0.008302406 -0.019246917 -0.01384749 0.21851861
0002f0 a5 97 b6 3d 91 5c 21 3d 5c 18 82 3c 84 ce 3e 3e
       0.08915643 0.03939492 0.015880756 0.18633467
000300 e1 66 32 3d 8c 3c bf bc 95 d0 07 3e 3e 70 2d 3e
       0.043555144 -0.0233443 0.13263161 0.16937348
000310 ea af ce bd b4 75 e8 bd 75 c5 4d 3c 4a d6 37 be
       -0.10092147 -0.11350575 0.012559284 -0.17952839
000320 6d 4a 96 bc dd e8 d6 bc ba 60 12 bd 49 3d 75 3b
       -0.018346036 -0.026234085 -0.035736777 0.0037420562
000330 5e 81 7a be d5 96 6a bd 4e ab 0c be 45 64 3e be
       -0.24463412 -0.05727275 -0.13737223 -0.18592937
000340 9f e0 e6 bd 6b 6c 40 3d e3 fd eb 3d f1 cb 06 ba
       -0.11273312 0.046978395 0.115230344 -0.0005142084
000350 8c 85 10 bd e5 37 0c 3d 67 ce 76 3d 79 f2 17 bc
       -0.03528361 0.034232993 0.060255434 -0.009274119
000360 61 4c 65 3c 3d 83 3d bd 0f d5 7c 3d 08 0a 45 3d
       0.013995261 -0.046267737 0.061726626 0.04810527
000370 aa 58 ca bb 34 03 df 3c 34 06 34 3b 53 43 61 be
       -0.0061751204 0.027223207 0.0027469518 -0.21998338
000380 1f 0e b7 3d 4b cf 70 ba 82 ed a7 3c f7 03 25 3e
       0.0893824 -0.00091861625 0.020498995 0.16114794
000390 82 f6 a2 bc 10 5c bf bd 20 ed 8b bd c1 be a1 3d
       -0.019892935 -0.093437314 -0.068323374 0.078977115
0003a0 37 4c 1c be 1d 16 06 3d d1 c0 ff bd dd a7 e1 bd
       -0.15263449 0.032735933 -0.12487949 -0.110183455
0003b0 74 95 a2 bd ad ab 62 be b0 4c b8 3e 39 30 13 be
       -0.07938662 -0.22135802 0.35996008 -0.14373864
0003c0 aa 53 19 be 0f 67 33 be b4 3c 2c 3e 1a de 78 3e
       -0.14973322 -0.17519782 0.16820031 0.24303475
0003d0 f4 bd 1b 3d dd c9 08 be 0a 3d 18 3d bd 6c 6e 3e
       0.03802295 -0.13358255 0.037167586 0.23283668
0003e0 d4 c9 49 be 5b dd 43 be c5 8e 9d 3c b3 00 55 bd
       -0.19705898 -0.19127409 0.019233117 -0.05200262
0003f0 57 ea a8 bd cb 61 64 be ef a0 44 3d d0 ee 87 bc
       -0.08247822 -0.2230293 0.04800504 -0.016593367

lstm.weight_hh_l0 f4 [176, 44]
000000 62 f4 5b be 08 be f5 bc 5d 30 36 3d 60 ab 41 3e
       -0.21479943 -0.02999784 0.044479717 0.1891303
000010 81 5e ea bd 81 77 23 be cb f8 52 bd ed ed d5 3d
       -0.114438064 -0.15963556 -0.0515068 0.10445771
000020 1a b0 13 be 8f 87 7a 3c 37 71 f3 bd 1f fd 46 be
       -0.14422646 0.015291109 -0.118868284 -0.19432496
000030 e8 13 3b bd c0 e1 11 3c 55 08 0e be 5e e1 c0 3c
       -0.04567328 0.008903921 -0.13870366 0.023544963
000040 62 2b 34 be 71 a5 86 3d 0a 1d 99 bd e7 4e 31 be
       -0.17594674 0.06574524 -0.07476242 -0.17315255
000050 fa 8d 4a bd 76 09 83 3d 8e c5 9d 3d f9 7c 2e be
       -0.049451806 0.06398289 0.07703696 -0.17039861
000060 24 7a f9 3d c0 aa 18 3e 5f 89 2f bd 4e 21 37 bd
       0.121814996 0.14908886 -0.042855617 -0.044709496
000070 32 c6 6c bd 5b e5 24 3e f5 ed 41 3d 0a c9 93 bc
       -0.0578062 0.16103117 0.047346074 -0.018040199
000080 26 f0 3c 3e 2c e9 01 be 59 a3 a1 bd 67 a0 bf 3b
       0.18450984 -0.12686604 -0.07892484 0.005847979
000090 e5 9a 36 3d 9e 09 d1 3b fa 9b c4 3d 50 ac d6 3d
       0.044581313 0.0063793203 0.09600063 0.10482085
0000a0 09 23 15 3e 72 20 da bd f8 a1 e8 bd 87 b3 01 3e
       0.14564146 -0.1065072 -0.11359018 0.1266614
0000b0 dc d0 a4 bd 8c 75 fa 3d 9b ca 5d 3e bc a2 2a 3e
       -0.08047649 0.122294515 0.21659319 0.1666364
0000c0 a0 93 d6 3c df b4 6e bc f4 c0 fd bd 31 be 84 3a
       0.02619344 -0.01456949 -0.123903185 0.0010127482
0000d0 69 94 0a bd fe c5 cf bd a3 da 58 bd 68 38 53 bc
       -0.03383294 -0.10145186 -0.052942883 -0.012891866
0000e0 e2 64 30 bd 97 b7 b7 3d bf a4 b3 bd 6d 68 ee bc
       -0.04306496 0.08970564 -0.08771657 -0.029102528
0000f0 58 f5 08 be 32 93 1e bd e1 6b 71 3b f3 05 26 3e
       -0.13374841 -0.038714595 0.0036837982 0.16213207
000100 d9 97 53 3c 88 54 79 3d 7c 49 3d 3d cc 6f 8a bc
       0.012914621 0.06087163 0.04621266 -0.016899012
000110 54 5c 49 3e 47 64 09 3e 1a 7b c3 3d 90 8a d0 bc
       0.19664127 0.13417159 0.09544964 -0.025456697
000120 89 f7 14 bd c5 35 ed bc f8 08 b2 3c f9 08 84 bd
       -0.03636888 -0.028956303 0.021732792 -0.06447024
000130 dc 93 85 bd 23 38 47 bd 5b f3 d4 3d 2c 65 49 bd
       -0.065223426 -0.04863752 0.10397979 -0.04916875
000140 d3 05 1e 3e a2 e3 47 3d 74 e2 c0 bd 34 9a 69 3d
       0.1543191 0.048801072 -0.094181925 0.057031825
000150 24 d5 41 be 00 b7 27 3d cc 8d 29 3d 4c 59 bc 3d
       -0.18928963 0.040946007 0.041394994 0.091967195
000160 98 c0 8a 3b 27 3e bb bd 87 0e 73 3d 64 e8 20 be
       0.0042343847 -0.09142714 0.059340026 -0.1571365
000170 40 45 84 3e 51 f2 3f 3e 41 c5 85 bd 81 89 73 bd
       0.25834084 0.1874478 -0.06531764 -0.059457306
000180 08 e4 8a 3d 30 a8 1e bd 9a c8 5c 3d c6 68 92 3c
       0.06781775 -0.038734615 0.053902246 0.017872225
000190 2f af c5 3d 80 83 73 bc df 1a 87 3d eb d8 a0 3d
       0.09652554 -0.014862895 0.06596922 0.07853874
0001a0 7c 98 29 3e 7f f2 f6 bc 37 08 c1 3d d8 ff 86 bd
       0.16562074 -0.030144928 0.09425395 -0.06591767
0001b0 1a 72 8e bd 0a b1 f1 bd c3 ef 7b 3d a2 b8 10 bd
       -0.06955357 -0.11801346 0.06150795 -0.03533233
0001c0 17 00 01 3e 99 bb 47 bc 3c 10 49 be 77 8d 42 3e
       0.1259769 -0.012190723 -0.19635099 0.18999277
0001d0 c4 ba 50 3d 0b 2b 84 bb a0 09 88 3c 88 7b 5f 3d
       0.050959364 -0.0040334514 0.016606152 0.054561168
0001e0 b8 96 cb 3c 51 b7 7a 3d c2 8c e9 3d 8f 62 e7 3d
       0.024852142 0.06120998 0.114038005 0.112980954
0001f0 53 b7 1f 3d ee b8 d9 bd ec c7 e1 bd 98 76 91 3e
       0.03899319 -0.10630976 -0.1102446 0.28410792
000200 14 fc e3 3d 4f 31 9e 3d 4b be 08 3d a2 9a 11 be
       0.111320645 0.077242486 0.033384603 -0.14219144
000210 52 af 06 b8 3f 96 57 bd ac ee 57 3d fb 8f 0d 3e
       -3.211137e-05 -0.05263352 0.05271785 0.13824455
000220 87 4d c3 3d 7f 6c a5 3d af 51 b2 3d 24 7c 99 bd
       0.095362715 0.080773346 0.08706986 -0.07494381
000230 9c 8b 42 3d f2 d2 45 bd 94 20 50 3e 6e 34 fb 3d
       0.047496423 -0.048296876 0.20324928 0.122658595
000240 fa 04 0e 3d 0a 51 96 3c 72 7b 4a bd d2 37 09 bd
       0.034672715 0.01834919 -0.049434133 -0.0335005
000250 92 46 e3 3d d7 67 10 3c f8 dc 9a bd ec 4d ff 3d
       0.110974446 0.00881382 -0.07561678 0.12466034
000260 43 e4 ef 3b 80 43 ca 3d 16 24 43 3d 04 b3 2e 3e
       0.007320912 0.09876156 0.047641836 0.17060477
000270 66 b3 a6 bb ff 02 5b bd 41 48 a5 bc ac 6c c7 3d
       -0.005087304 -0.053469654 -0.020176055 0.097375244
000280 5a d1 28 bd d5 cd d1 3d 73 08 17 bc 0d 38 ac 3c
       -0.04121528 0.102443375 -0.009218323 0.02102282
000290 4c 4c c1 bd bf a1 b2 3d b5 32 75 bc db 8b 0f be
       -0.094383806 0.08722257 -0.014965703 -0.14018194
0002a0 7d 61 93 bd 2b b5 82 3d aa 50 08 3e 7b 88 a1 3d
       -0.07196329 0.06382211 0.13312021 0.0788736
0002b0 c8 39 ca bd de dc aa bd 93 4f 57 3c c2 db 31 be
       -0.09874302 -0.08342908 0.013141531 -0.17368987
0002c0 e0 fd ca 3c 3e bf 63 bd 3c ea 33 3d 99 fb 65 3d
       0.02477926 -0.055602305 0.043924555 0.056148145
0002d0 90 ad d4 3d 80 e4 a0 ba 2d 9b cd 3d 8e f4 0c be
       0.10384667 -0.001227513 0.10039363 -0.13765165
0002e0 50 ea 2f 3c 35 4d 17 bc ce 87 01 3e d2 aa a4 bd
       0.010737017 -0.009234716 0.12649462 -0.08040394
0002f0 ca 64 06 bc 14 4c 43 bb c2 f3 29 3e 0b e1 cf 3c
       -0.008202741 -0.0029799985 0.16596892 0.025375864
000300 65 ff ca bc 7d 3b c4 3c c5 e1 f0 bd ed f2 42 3d
       -0.024779985 0.023954147 -0.11761812 0.047594953
000310 6e e8 23 be 1a d4 32 bd ac f1 1f be 45 bd 99 3d
       -0.16006634 -0.043659307 -0.15619534 0.075068034
000320 17 ec 70 3d 75 65 d2 3d c3 bd 92 3d 78 76 59 bd
       0.058818903 0.10273258 0.071651004 -0.053091496
000330 91 c6 f5 bb 8b 91 8d 3d f6 16 37 bd 6a 31 70 3d
       -0.0075004776 0.06912526 -0.04469963 0.058640875
000340 df e4 03 3e 62 03 be 3d 37 49 89 3d c7 93 08 3e
       0.12880276 0.09277989 0.06703418 0.13337623
000350 8a 1e 1f 3e bc 02 13 3d 95 f5 c8 3d 34 64 a8 bc
       0.15538993 0.03589128 0.09812466 -0.020555593
000360 3f b4 a5 3c 10 8b 77 3c 7a 5e 0f bd 57 3b 50 bd
       0.02022755 0.015108839 -0.03500221 -0.05083784
000370 24 8e a8 3d fd 53 b9 3c a3 a5 d9 3d 29 6e 72 bd
       0.08230236 0.022623057 0.10627296 -0.05918709
000380 4a 3f 52 bb 66 24 14 be ce fa 97 bc 16 de 3c 3c
       -0.003208118 -0.1446701 -0.01855221 0.011527559
000390 40 39 8b 3d 36 72 66 3b 92 a1 40 bd bd 37 a2 3d
       0.06798029 0.003516329 -0.047029085 0.079207875
0003a0 b2 05 03 3d 05 22 0e 3d 86 70 1d 3e 2f 0c 83 bd
       0.031987853 0.034700412 0.15374956 -0.06398808
0003b0 97 0e 85 3d 7f a8 e8 3c 8d a6 16 bc fe 12 63 3d
       0.064969234 0.028400658 -0.009194982 0.055438034
0003c0 5f d2 9c 3d fc 6e fb 3c f5 a2 8e 3c 88 7e f0 bc
       0.076573126 0.03069257 0.017411688 -0.02935721
0003d0 ff 08 9d bc a0 36 87 bd ce 63 b8 bd a7 25 30 3e
       -0.019169329 -0.06602216 -0.09003411 0.17201863
0003e0 fe 53 a1 3d 6e f8 06 bc 9d 77 c9 bc a1 5f 60 bd
       0.07877348 -0.008237941 -0.024593169 -0.0547787
0003f0 f5 a8 18 3e e9 97 06 be 2e bb 22 3e 1e 29 90 bc
       0.14908202 -0.13143887 0.15891716 -0.017597731

lstm.bias_ih_l0 f4 [176]
000000 00 00 00 00 00 00 00 00 00 00 00 00 00 00 00 00
       0.0 0.0 0.0 0.0
000010 00 00 00 00 00 00 00 00 00 00 00 00 00 00 00 00
       0.0 0.0 0.0 0.0
000020 00 00 00 00 00 00 00 00 00 00 00 00 00 00 00 00
       0.0 0.0 0.0 0.0
000030 00 00 00 00 00 00 00 00 00 00 00 00 00 00 00 00
       0.0 0.0 0.0 0.0
000040 00 00 00 00 00 00 00 00 00 00 00 00 00 00 00 00
       0.0 0.0 0.0 0.0
000050 00 00 00 00 00 00 00 00 00 00 00 00 00 00 00 00
       0.0 0.0 0.0 0.0
000060 00 00 00 00 00 00 00 00 00 00 00 00 00 00 00 00
       0.0 0.0 0.0 0.0
000070 00 00 00 00 00 00 00 00 00 00 00 00 00 00 00 00
       0.0 0.0 0.0 0.0
000080 00 00 00 00 00 00 00 00 00 00 00 00 00 00 00 00
       0.0 0.0 0.0 0.0
000090 00 00 00 00 00 00 00 00 00 00 00 00 00 00 00 00
       0.0 0.0 0.0 0.0
0000a0 00 00 00 00 00 00 00 00 00 00 00 00 00 00 00 00
       0.0 0.0 0.0 0.0
0000b0 00 00 00 00 00 00 00 00 00 00 00 00 00 00 00 00
       0.0 0.0 0.0 0.0
0000c0 00 00 00 00 00 00 00 00 00 00 00 00 00 00 00 00
       0.0 0.0 0.0 0.0
0000d0 00 00 00 00 00 00 00 00 00 00 00 00 00 00 00 00
       0.0 0.0 0.0 0.0
0000e0 00 00 00 00 00 00 00 00 00 00 00 00 00 00 00 00
       0.0 0.0 0.0 0.0
0000f0 00 00 00 00 00 00 00 00 00 00 00 00 00 00 00 00
       0.0 0.0 0.0 0.0
000100 00 00 00 00 00 00 00 00 00 00 00 00 00 00 00 00
       0.0 0.0 0.0 0.0
000110 00 00 00 00 00 00 00 00 00 00 00 00 00 00 00 00
       0.0 0.0 0.0 0.0
000120 00 00 00 00 00 00 00 00 00 00 00 00 00 00 00 00
       0.0 0.0 0.0 0.0
000130 00 00 00 00 00 00 00 00 00 00 00 00 00 00 00 00
       0.0 0.0 0.0 0.0
000140 00 00 00 00 00 00 00 00 00 00 00 00 00 00 00 00
       0.0 0.0 0.0 0.0
000150 00 00 00 00 00 00 00 00 00 00 00 00 00 00 00 00
       0.0 0.0 0.0 0.0
000160 00 00 00 00 00 00 00 00 00 00 00 00 00 00 00 00
       0.0 0.0 0.0 0.0
000170 00 00 00 00 00 00 00 00 00 00 00 00 00 00 00 00
       0.0 0.0 0.0 0.0
000180 00 00 00 00 00 00 00 00 00 00 00 00 00 00 00 00
       0.0 0.0 0.0 0.0
000190 00 00 00 00 00 00 00 00 00 00 00 00 00 00 00 00
       0.0 0.0 0.0 0.0
0001a0 00 00 00 00 00 00 00 00 00 00 00 00 00 00 00 00
       0.0 0.0 0.0 0.0
0001b0 00 00 00 00 00 00 00 00 00 00 00 00 00 00 00 00
       0.0 0.0 0.0 0.0
0001c0 00 00 00 00 00 00 00 00 00 00 00 00 00 00 00 00
       0.0 0.0 0.0 0.0
0001d0 00 00 00 00 00 00 00 00 00 00 00 00 00 00 00 00
       0.0 0.0 0.0 0.0
0001e0 00 00 00 00 00 00 00 00 00 00 00 00 00 00 00 00
       0.0 0.0 0.0 0.0
0001f0 00 00 00 00 00 00 00 00 00 00 00 00 00 00 00 00
       0.0 0.0 0.0 0.0
000200 00 00 00 00 00 00 00 00 00 00 00 00 00 00 00 00
       0.0 0.0 0.0 0.0
000210 00 00 00 00 00 00 00 00 00 00 00 00 00 00 00 00
       0.0 0.0 0.0 0.0
000220 00 00 00 00 00 00 00 00 00 00 00 00 00 00 00 00
       0.0 0.0 0.0 0.0
000230 00 00 00 00 00 00 00 00 00 00 00 00 00 00 00 00
       0.0 0.0 0.0 0.0
000240 00 00 00 00 00 00 00 00 00 00 00 00 00 00 00 00
       0.0 0.0 0.0 0.0
000250 00 00 00 00 00 00 00 00 00 00 00 00 00 00 00 00
       0.0 0.0 0.0 0.0
000260 00 00 00 00 00 00 00 00 00 00 00 00 00 00 00 00
       0.0 0.0 0.0 0.0
000270 00 00 00 00 00 00 00 00 00 00 00 00 00 00 00 00
       0.0 0.0 0.0 0.0
000280 00 00 00 00 00 00 00 00 00 00 00 00 00 00 00 00
       0.0 0.0 0.0 0.0
000290 00 00 00 00 00 00 00 00 00 00 00 00 00 00 00 00
       0.0 0.0 0.0 0.0
0002a0 00 00 00 00 00 00 00 00 00 00 00 00 00 00 00 00
       0.0 0.0 0.0 0.0
0002b0 00 00 00 00 00 00 00 00 00 00 00 00 00 00 00 00
       0.0 0.0 0.0 0.0

lstm.bias_hh_l0 f4 [176]
000000 00 00 00 00 00 00 00 00 00 00 00 00 00 00 00 00
       0.0 0.0 0.0 0.0
000010 00 00 00 00 00 00 00 00 00 00 00 00 00 00 00 00
       0.0 0.0 0.0 0.0
000020 00 00 00 00 00 00 00 00 00 00 00 00 00 00 00 00
       0.0 0.0 0.0 0.0
000030 00 00 00 00 00 00 00 00 00 00 00 00 00 00 00 00
       0.0 0.0 0.0 0.0
000040 00 00 00 00 00 00 00 00 00 00 00 00 00 00 00 00
       0.0 0.0 0.0 0.0
000050 00 00 00 00 00 00 00 00 00 00 00 00 00 00 00 00
       0.0 0.0 0.0 0.0
000060 00 00 00 00 00 00 00 00 00 00 00 00 00 00 00 00
       0.0 0.0 0.0 0.0
000070 00 00 00 00 00 00 00 00 00 00 00 00 00 00 00 00
       0.0 0.0 0.0 0.0
000080 00 00 00 00 00 00 00 00 00 00 00 00 00 00 00 00
       0.0 0.0 0.0 0.0
000090 00 00 00 00 00 00 00 00 00 00 00 00 00 00 00 00
       0.0 0.0 0.0 0.0
0000a0 00 00 00 00 00 00 00 00 00 00 00 00 00 00 00 00
       0.0 0.0 0.0 0.0
0000b0 00 00 00 00 00 00 00 00 00 00 00 00 00 00 00 00
       0.0 0.0 0.0 0.0
0000c0 00 00 00 00 00 00 00 00 00 00 00 00 00 00 00 00
       0.0 0.0 0.0 0.0
0000d0 00 00 00 00 00 00 00 00 00 00 00 00 00 00 00 00
       0.0 0.0 0.0 0.0
0000e0 00 00 00 00 00 00 00 00 00 00 00 00 00 00 00 00
       0.0 0.0 0.0 0.0
0000f0 00 00 00 00 00 00 00 00 00 00 00 00 00 00 00 00
       0.0 0.0 0.0 0.0
000100 00 00 00 00 00 00 00 00 00 00 00 00 00 00 00 00
       0.0 0.0 0.0 0.0
000110 00 00 00 00 00 00 00 00 00 00 00 00 00 00 00 00
       0.0 0.0 0.0 0.0
000120 00 00 00 00 00 00 00 00 00 00 00 00 00 00 00 00
       0.0 0.0 0.0 0.0
000130 00 00 00 00 00 00 00 00 00 00 00 00 00 00 00 00
       0.0 0.0 0.0 0.0
000140 00 00 00 00 00 00 00 00 00 00 00 00 00 00 00 00
       0.0 0.0 0.0 0.0
000150 00 00 00 00 00 00 00 00 00 00 00 00 00 00 00 00
       0.0 0.0 0.0 0.0
000160 00 00 00 00 00 00 00 00 00 00 00 00 00 00 00 00
       0.0 0.0 0.0 0.0
000170 00 00 00 00 00 00 00 00 00 00 00 00 00 00 00 00
       0.0 0.0 0.0 0.0
000180 00 00 00 00 00 00 00 00 00 00 00 00 00 00 00 00
       0.0 0.0 0.0 0.0
000190 00 00 00 00 00 00 00 00 00 00 00 00 00 00 00 00
       0.0 0.0 0.0 0.0
0001a0 00 00 00 00 00 00 00 00 00 00 00 00 00 00 00 00
       0.0 0.0 0.0 0.0
0001b0 00 00 00 00 00 00 00 00 00 00 00 00 00 00 00 00
       0.0 0.0 0.0 0.0
0001c0 00 00 00 00 00 00 00 00 00 00 00 00 00 00 00 00
       0.0 0.0 0.0 0.0
0001d0 00 00 00 00 00 00 00 00 00 00 00 00 00 00 00 00
       0.0 0.0 0.0 0.0
0001e0 00 00 00 00 00 00 00 00 00 00 00 00 00 00 00 00
       0.0 0.0 0.0 0.0
0001f0 00 00 00 00 00 00 00 00 00 00 00 00 00 00 00 00
       0.0 0.0 0.0 0.0
000200 00 00 00 00 00 00 00 00 00 00 00 00 00 00 00 00
       0.0 0.0 0.0 0.0
000210 00 00 00 00 00 00 00 00 00 00 00 00 00 00 00 00
       0.0 0.0 0.0 0.0
000220 00 00 00 00 00 00 00 00 00 00 00 00 00 00 00 00
       0.0 0.0 0.0 0.0
000230 00 00 00 00 00 00 00 00 00 00 00 00 00 00 00 00
       0.0 0.0 0.0 0.0
000240 00 00 00 00 00 00 00 00 00 00 00 00 00 00 00 00
       0.0 0.0 0.0 0.0
000250 00 00 00 00 00 00 00 00 00 00 00 00 00 00 00 00
       0.0 0.0 0.0 0.0
000260 00 00 00 00 00 00 00 00 00 00 00 00 00 00 00 00
       0.0 0.0 0.0 0.0
000270 00 00 00 00 00 00 00 00 00 00 00 00 00 00 00 00
       0.0 0.0 0.0 0.0
000280 00 00 00 00 00 00 00 00 00 00 00 00 00 00 00 00
       0.0 0.0 0.0 0.0
000290 00 00 00 00 00 00 00 00 00 00 00 00 00 00 00 00
       0.0 0.0 0.0 0.0
0002a0 00 00 00 00 00 00 00 00 00 00 00 00 00 00 00 00
       0.0 0.0 0.0 0.0
0002b0 00 00 00 00 00 00 00 00 00 00 00 00 00 00 00 00
       0.0 0.0 0.0 0.0

lstm.weight_ih_l1 f4 [176, 44]
000000 11 ad c1 bd d9 b7 18 3e e4 c1 1e 3d ae bb fa 3d
       -0.09456838 0.14913882 0.038759127 0.12242828
000010 9c 00 07 3e 1d d8 84 3d 58 bc 24 3d ba 6b 6f bb
       0.13183826 0.06486533 0.04021868 -0.0036532716
000020 6b 1b 86 bd 04 39 48 3e 25 9a 94 3d 29 f6 ee bc
       -0.06548198 0.19553 0.07255963 -0.029170113
000030 83 94 04 be 0a be 20 3d 17 51 58 bc 82 f2 50 be
       -0.12947278 0.039243735 -0.013202927 -0.2040501
000040 19 e8 89 3d 8c aa 34 be 12 eb 3c bd 71 8c 4b 3d
       0.06733722 -0.17643183 -0.046122618 0.049694482
000050 31 c7 16 bb 76 69 b3 3d 51 4f 18 bd a0 27 4d 3d
       -0.002300691 0.087603495 -0.037185017 0.050086617
000060 5f 35 04 3d 3a 85 b0 3c d8 f9 03 be 44 31 b1 bd
       0.03227746 0.021547902 -0.12888277 -0.08651975
000070 c2 13 d3 3b a3 5e 55 3c 19 47 db bc 14 b1 0f be
       0.0064415643 0.013023051 -0.0267673 -0.14032394
000080 d5 87 87 3d 52 83 11 be 9a 38 8a 3d f4 51 af bb
       0.06617705 -0.14210251 0.06749077 -0.0053503457
000090 9d 89 24 3d f0 81 af 3d c5 31 ce bc e5 11 3d bd
       0.0401703 0.085697055 -0.025170216 -0.046159644
0000a0 62 e8 17 3d b8 41 95 3c b3 1f 43 bd d8 ed 20 be
       0.037086852 0.018219814 -0.047637653 -0.1571573
0000b0 e0 c2 09 be c1 04 a7 3d 24 5a 12 be ce 6a 89 3b
       -0.13453245 0.081552036 -0.14292198 0.0041936403
0000c0 09 89 f6 bd 2a 1e c7 b9 72 09 27 bc da 47 8c bd
       -0.12037856 -0.00037978712 -0.010195123 -0.06849642
0000d0 b1 94 1c bd 56 78 3c 3d 8b 84 54 3d 3b b4 04 be
       -0.03822774 0.0460132 0.051884215 -0.12959377
0000e0 be 45 ec 3c d8 b9 a8 bc 56 e0 0e 3d fc 8c 08 be
       0.02884185 -0.02059643 0.034881912 -0.13335031
0000f0 ce 14 58 3e 95 67 81 3d 2b 46 9a bd 1c be 4c 3c
       0.21101686 0.06318585 -0.07532915 0.0124964975
000100 89 15 38 bd ad 0f b8 3d 70 84 28 bd e4 99 0c 3d
       -0.044942413 0.08987365 -0.041141927 0.03432645
000110 c0 94 11 be 79 66 d1 3d c8 c5 ab bc 4b 09 d4 bd
       -0.142169 0.10224623 -0.020968333 -0.10353335
000120 e4 12 d0 bc 75 d5 cb bc 83 ee 1b 3c 50 61 3c bd
       -0.025399633 -0.024882058 0.009517315 -0.045991242
000130 5b ac ac bd f2 20 5d bd 26 8a 84 bd 3b eb 76 3c
       -0.08431312 -0.053986497 -0.06471662 0.015070732
000140 a3 99 6a 3d 75 65 30 be 08 ee 56 3d 8d e7 29 be
       0.057275426 -0.17226203 0.052473098 -0.16592236
000150 2f 9c 59 3d c2 52 bd 3d af ff 2b be 2f 9d 80 bb
       0.053127464 0.092443004 -0.16796754 -0.0039249877
000160 c6 4d 91 3d 6e 7a 28 3d bc b9 d6 3d 01 a9 98 bd
       0.07094912 0.041132383 0.10484645 -0.0745411
000170 33 8c c0 bd 50 91 7f 3e c5 f8 cd bc 4b 8e a3 3d
       -0.09401741 0.24957776 -0.025143037 0.079861246
000180 2f ce 04 bd f5 36 38 3d 54 dd e3 3a 17 87 71 3c
       -0.032423194 0.044974286 0.0017384687 0.014741681
000190 b3 03 ab bc fe 87 d1 3d 39 fc 1f 3a e7 39 14 3d
       -0.020875787 0.102310166 0.0006102953 0.036188032
0001a0 72 73 f1 3d 2c fd 74 3d 68 25 c7 3d 67 63 9c 3d
       0.117895976 0.059811756 0.097239316 0.07636147
0001b0 a7 ec 5b 3c c2 1f 0d be 4a 23 44 bc 04 4f 25 bd
       0.0134231215 -0.13781646 -0.011971304 -0.04035856
0001c0 44 f1 ca 3d 95 f8 16 be e8 aa 87 3d 4c 1e 31 3d
       0.09909299 -0.14743264 0.06624395 0.043241784
0001d0 8c 3f cc bd 6e 28 d2 3d 6a e2 44 bd ef fb 13 3e
       -0.09973058 0.102616176 -0.048067488 0.14451574
0001e0 52 4e 0f 3d 55 4a 65 bd 35 85 59 ba df 9c e5 3d
       0.0349868 -0.05597909 -0.00082977425 0.112115614
0001f0 ea 1a b8 bd 0f 23 1b 3e 18 66 42 3d 49 6f 3f bd
       -0.089895085 0.15150093 0.047460645 -0.04673699
000200 1e 3e 12 bb c1 4e 09 be dd d5 23 bd 70 c1 c1 3d
       -0.0022314857 -0.13408948 -0.039998878 0.094607234
000210 91 49 f5 bc 61 ec b5 3c d3 ef 09 3e 92 a6 47 3c
       -0.029942306 0.02220744 0.13470392 0.01218571
000220 68 b2 f0 3d 28 03 25 be 93 13 47 be 7b e6 9a bd
       0.11752778 -0.16114485 -0.1944106 -0.07563492
000230 1c 1a 8d bc b9 fe d7 3d c4 3f ac bd 07 e8 d7 bd
       -0.017224364 0.10546631 -0.084106 -0.105423026
000240 e1 dc 3e be db cf 96 bd d7 e1 c7 bd 07 f1 9a bc
       -0.18638946 -0.07363864 -0.097598724 -0.018913759
000250 d4 6e 5e be 3c f4 02 3e 07 5d 47 bd e0 f4 9c 3d
       -0.21721965 0.1278848 -0.048672702 0.07663894
000260 ee 34 94 3d f8 2e 98 bc f6 3f 02 be e4 2e b0 bd
       0.07236658 -0.018577084 -0.12719712 -0.08602694
000270 4e 5e bb bd 45 13 cc bc ce 9f 66 3e 3e bf a6 bc
       -0.091488466 -0.024911532 0.22521898 -0.020354863
000280 20 87 d8 bc 6e aa 4e 3d 87 2b 9f bd 79 24 2c 3d
       -0.02643162 0.050455503 -0.07771974 0.04202697
000290 8e 63 34 bd e3 5a 15 be f6 c7 26 ba 4f 82 bd 3d
       -0.044040255 -0.14585452 -0.0006362194 0.0925337
0002a0 ff cb 58 3d 21 37 ca 3c 8d 53 32 bd f2 1f 9e bd
       0.05292892 0.02468449 -0.04353671 -0.07720937
0002b0 7a 4e 91 bc a1 2b 99 ba 05 8c 3a be 6f 0b 66 be
       -0.017737616 -0.0011685976 -0.18217476 -0.22465299
0002c0 6c 5a b3 bc 83 c2 46 be 9f 38 9b 3d 50 89 c5 3d
       -0.021893702 -0.19410138 0.07579159 0.09645331
0002d0 51 13 25 bc 74 6a 69 3d db 6c a7 3d e8 36 95 3d
       -0.010075406 0.056986287 0.081750594 0.07285863
0002e0 49 c3 f4 bd 56 d2 03 3e df be bc 3c 1b 21 6c 3d
       -0.1195131 0.12873206 0.023040233 0.05764876
0002f0 ca 07 d8 3c 30 bb f3 bd fa 04 cb 3d be d8 12 be
       0.026370902 -0.119009376 0.099130586 -0.14340493
000300 d9 8e 13 bd 0f 99 36 3d bd d8 a7 3d 2b 42 bc 3d
       -0.036024902 0.04457956 0.081956364 0.09192308
000310 25 01 c7 3d 84 86 15 3e 6f 82 f3 3d b1 58 eb 3b
       0.09717015 0.14602095 0.118901126 0.0071822037
000320 52 ad 60 bd 15 ee 1e 3d 86 42 76 3c 7c d8 24 3d
       -0.05485279 0.03880127 0.015030509 0.040245518
000330 c3 b0 57 3d 77 62 1c 3e e4 01 b5 3d 5a f6 b0 bd
       0.052658807 0.15271936 0.08838251 -0.08640738
000340 38 6a d8 bd 1a fc e7 3c 45 29 2f be b2 ce 2b bd
       -0.105671346 0.028318454 -0.17105587 -0.041945167
000350 f0 cc 59 be 70 79 d0 3d bc 6e 2e be 4d 35 53 3d
       -0.21269584 0.10179412 -0.1703443 0.051564503
000360 40 de a2 bc ae 44 70 3d 09 f3 b1 3c 59 d2 dd bd
       -0.019881368 0.058659248 0.021722334 -0.10831136
000370 84 21 75 3d 63 10 7b be de 75 2f bd 8e f0 06 3e
       0.059846416 -0.2451797 -0.042837016 0.13177702
000380 a6 3f 3d 3c a2 a8 3a bd 08 3b 22 bd 0f cc f5 3d
       0.0115508195 -0.045570977 -0.039607078 0.12001812
000390 d8 75 95 3d d8 96 b0 3d 03 fd d3 3d 57 de d3 bd
       0.072978675 0.08622521 0.103509925 -0.10345142
0003a0 e8 2a a5 bd 6e 2f e3 bd 74 08 7a be ab 02 21 bb
       -0.08064824 -0.11093031 -0.24417287 -0.002456824
0003b0 f6 6a 99 bd 5b da 95 3d 33 0c 5e 3d 64 8e 12 3d
       -0.07491104 0.073170386 0.054210853 0.035780326
0003c0 47 c6 71 3d 3b f8 32 be 4d f4 b9 ba 8c 1a 2c 3d
       0.059026983 -0.17477505 -0.0014187187 0.042017505
0003d0 60 d9 0c bd 8d 19 24 3d 33 1a 09 3d 70 c6 e6 bd
       -0.034386992 0.04006343 0.03347225 -0.11268318
0003e0 ea 0b 50 bd 41 ac 33 3e f0 b4 c8 3d ea dd 87 3d
       -0.050792612 0.17546178 0.09800136 0.066341236
0003f0 1e 71 67 be 88 95 13 3d 22 d9 d6 3c 83 01 21 be
       -0.22601745 0.036031276 0.026226584 -0.15723233

lstm.weight_hh_l1 f4 [176, 44]
000000 3b 1c fe bc 35 91 23 be 15 22 fd bd e8 4d c9 3c
       -0.03101932 -0.15973361 -0.12360016 0.024573281
000010 d4 11 80 bc 29 9e 74 be 20 9a be bc 04 14 c7 bd
       -0.015633501 -0.23888458 -0.023266852 -0.097206146
000020 a3 9c 87 3b 26 7b 74 3d b4 14 ac 3d bb a4 50 bd
       0.0041385456 0.059687756 0.08402386 -0.05093835
000030 c5 fc 10 3d ff 32 e9 bd 1d 75 a9 bd a5 a6 f4 bd
       0.03539731 -0.1138668 -0.08274291 -0.119458474
000040 4c 51 b5 3c d4 48 1c bd d6 2c b8 bb 95 2d b0 3d
       0.022133492 -0.03815539 -0.0056205792 0.08602444
000050 29 2c e1 3c b4 98 08 be b2 7a 92 bd 57 c8 c4 bd
       0.027486878 -0.13339502 -0.071523085 -0.09608524
000060 26 8a b2 bc 6e 6a 8c 3e 6e f7 03 3d 90 54 25 3c
       -0.02179439 0.2742495 0.03221839 0.010090962
000070 af fe 70 bc c4 24 58 bd 05 5c 60 3e cb 27 04 bd
       -0.014709159 -0.052769437 0.21910103 -0.032264512
000080 45 8e 2f bd e3 d9 a4 3d 96 f3 4d bd 83 b7 7f bd
       -0.04286029 0.08049371 -0.05028113 -0.06243087
000090 c5 60 0f be 14 2a 5d bd 81 b9 32 3d 3e d1 c3 bc
       -0.14001758 -0.053995207 0.04363394 -0.023903485
0000a0 54 39 a7 3d 1f 0a ae bc fc 85 e8 bd 9e f4 35 3e
       0.08165231 -0.02124506 -0.113536805 0.17769095
0000b0 92 13 0a 3e 8d 4a 93 bd 06 a5 6a 3d 8e b7 c2 3b
       0.13484028 -0.07191954 0.057286285 0.0059422916
0000c0 3c 13 dc 3c 23 90 1a bd a4 a2 ae 3a f5 bd 89 3d
       0.02686464 -0.037735116 0.0013323617 0.067256846
0000d0 5d 65 a6 bd 86 cc 98 3b 70 62 ae bd 8b 82 00 bd
       -0.08124802 0.004663053 -0.08514869 -0.031374495
0000e0 9e 49 96 bd 68 6a 86 bd b2 99 f0 bd 9e 25 08 3d
       -0.0733826 -0.06563264 -0.11748065 0.033239
0000f0 eb d3 5a be 45 0f b1 bd 44 2c be 3d 43 43 45 bd
       -0.21369903 -0.086454906 0.09285787 -0.04815985
000100 32 33 29 3d f6 55 8c bd 5d da 31 be ee 00 5d 3b
       0.04130859 -0.06852333 -0.17368455 0.0033722478
000110 b4 04 21 bd 36 21 6c bd 95 c9 6b bd 1b 02 5d 3d
       -0.039311126 -0.05764886 -0.05756529 0.053957086
000120 90 ad 81 3e ad 5e 33 3e eb a4 b4 bb b1 71 99 bd
       0.2532773 0.17516585 -0.005512824 -0.07492388
000130 0e 73 f1 3c d4 0a 4f 3c 96 4e cf bd 5a e3 9c bd
       0.029473808 0.012636859 -0.10122411 -0.07660551
000140 cf 91 90 bd a9 d8 d6 3d d6 7e 35 3d 3f 80 c3 3c
       -0.07059061 0.104905434 0.044310413 0.023864863
000150 73 62 14 be f6 50 43 3d 7e 01 0e be 9d 2e b4 3d
       -0.1449068 0.047684632 -0.13867757 0.08797953
000160 07 60 ca 3c ff 2a 96 3d b6 ee 9b bd 09 6c 2b 3d
       0.024703993 0.073324196 -0.0761389 0.041851077
000170 03 78 3c bd 35 99 4c bd 55 db 6d 3e 93 cf b5 bc
       -0.04601289 -0.049950797 0.232282 -0.022193706
000180 b2 88 4e 3d 3f 9c 97 bd 2f ec ee bd c8 27 6e bc
       0.05042333 -0.074028485 -0.11666142 -0.014535852
000190 c8 f6 14 3e f7 ba 2e 3e 74 af 13 be 6c c5 7e bd
       0.14547265 0.17063509 -0.14422399 -0.062199995
0001a0 63 9a 0f be 6f d8 0d bd cc 7d 56 3c c8 c9 d1 bd
       -0.14023738 -0.034630235 0.013091516 -0.10243565
0001b0 25 ef c7 bd 6f 0b af bc e1 06 a3 3d c0 38 da 3d
       -0.0976241 -0.021367757 0.079602964 0.106553555
0001c0 11 b3 27 be 21 99 02 3d ed ed 93 3d f3 fd d6 bd
       -0.16376902 0.031884316 0.07223115 -0.10497656
0001d0 0d c6 4d 3d de e3 04 3e 48 45 e9 bd 87 93 bf bd
       0.050237704 0.1297755 -0.113901675 -0.093543105
0001e0 9a 83 50 3d 1e d0 d1 3d c9 10 15 3e b3 53 43 be
       0.050906755 0.10244773 0.14557184 -0.19074897
0001f0 47 b7 b4 bd 43 ca 2a 3d ea c6 aa bd 24 60 96 bd
       -0.0882402 0.041696798 -0.08338721 -0.07342556
000200 08 5d db 3d 99 4e 3b bd 04 4d e7 bd cd da 8f 3d
       0.10711104 -0.045729253 -0.112939864 0.07024155
000210 90 bb e0 3d 17 6b 21 be a3 24 fa bd b3 56 e3 bd
       0.10973275 -0.15763508 -0.12214019 -0.11100521
000220 51 73 ad bc 72 cc 83 bd 85 89 85 3c 6b 84 19 be
       -0.021173151 -0.06435479 0.016300926 -0.1499192
000230 cb a6 2c 3e f0 c4 0c 3d 8c 9d 95 3d 5f 38 18 3c
       0.16860501 0.0343675 0.0730544 0.009290784
000240 ce 7a 38 bc 99 88 e5 3c 29 a7 b8 bd 0a c4 a0 3d
       -0.011259748 0.028019236 -0.09016258 0.078498915
000250 f7 a4 8a 3d 4e 6d 57 3d f5 8a 06 3d 60 bc bb ba
       0.06769746 0.052594475 0.032847364 -0.0014323108
000260 65 a2 4b 3d 5a da ae bd 80 07 41 be a0 fe 29 3d
       0.04971542 -0.08537741 -0.18850517 0.041502595
000270 7b 79 5c be 1f b6 66 3d f5 b5 7a bc 97 6c 60 3d
       -0.21530716 0.056326028 -0.015302171 0.05479106
000280 3e 27 03 be 72 21 d4 bc be 89 f5 bd 94 e8 bb 3d
       -0.12807938 -0.025894854 -0.11989163 0.0917522
000290 5c 73 fa 3b 0c 8b a9 bb 4d 8f 79 3d 63 d7 9c 3d
       0.0076431464 -0.0051740464 0.060927678 0.07658269
0002a0 c3 e6 29 bd cb 39 e7 3d 38 28 21 3d c2 e6 02 3e
       -0.041479837 0.1129032 0.039344996 0.1278334
0002b0 d5 2d e7 bd 69 58 c3 bd d5 ba 22 bd ae ef 8f 3c
       -0.11288039 -0.09538347 -0.03972896 0.017570343
0002c0 c1 b2 9f 3d 9d c5 32 3d c4 09 56 be 6e e7 24 3e
       0.077977665 0.04364549 -0.20902163 0.16103908
0002d0 85 c3 20 3d 24 91 72 bd af 53 0c 3c a3 32 d5 3d
       0.039248962 -0.059220448 0.008564874 0.10410049
0002e0 3f cd c7 3d 0a 22 c6 3b ca 64 3d be d0 f3 3f 3d
       0.097559445 0.0060465382 -0.18495479 0.046863377
0002f0 29 07 9d 3d ae 4b fc 3c 8b f7 08 bc 2e 7d bb 3d
       0.07667381 0.030797806 -0.0083598 0.091547355
000300 8b d7 a6 3c fd 82 3d bd 16 58 a2 3d a2 f3 2f 3c
       0.02036645 -0.0462675 0.07926957 0.010739239
000310 01 13 fb bc a7 52 c2 bd 24 38 c7 3d ca 4b 23 3e
       -0.03064871 -0.09488421 0.09727505 0.1594688
000320 28 38 61 bc 83 49 cc 3d 69 78 e2 3c b8 5b c5 bd
       -0.013746299 0.09974959 0.027645307 -0.096366346
000330 64 e3 84 bd e3 6c ed bd 37 7a 9e 3d d3 a9 d0 bc
       -0.06488684 -0.11593034 0.077381544 -0.025471603
000340 f6 d8 69 3d b8 fa 63 be b9 09 15 bc f4 01 be 3c
       0.057091676 -0.2226361 -0.009096556 0.02319429
000350 a6 fd 72 bd 81 ba 1d bd b3 c6 4e bc cb 32 88 bd
       -0.05932393 -0.038507942 -0.012620616 -0.06650313
000360 6a ff a5 bc 40 c6 a3 bd 45 fc d5 3d 1a ff 6b bd
       -0.020263392 -0.079967976 0.10448507 -0.05761633
000370 e1 10 65 3d 1a 3f 7b bd e8 60 8e bd 92 01 16 be
       0.0559243 -0.061339475 -0.06952077 -0.14649037
000380 80 5d e1 3d 8b 11 15 bd 7c bd 63 bd 3a 81 81 bd
       0.11004162 -0.036393683 -0.05560063 -0.06323476
000390 fa c1 d4 3d d1 21 64 3d c3 e5 0b 3c 75 62 04 be
       0.103885606 0.055696312 0.008538666 -0.12928183
0003a0 b6 1f d8 bd c1 29 c7 bd 0e 14 f4 bc a4 3d 08 3d
       -0.105529234 -0.09724761 -0.02979472 0.03326191
0003b0 38 b1 1a 3d 95 9c 84 3d 3d 30 83 3d 1e 99 54 3e
       0.037766665 0.06475178 0.06405685 0.20761535
0003c0 e0 d7 84 bd 0f 34 23 3e 1b d0 2b be 7e e9 23 3e
       -0.064864874 0.15937828 -0.16778605 0.16007039
0003d0 54 fa b5 bc 41 fb 95 bc 87 7d cd bd c5 34 55 3d
       -0.022214092 -0.018308284 -0.10033708 0.052052278
0003e0 c1 94 1f 3e fa 55 32 be 63 d8 95 3d 70 64 10 bd
       0.15584089 -0.1741561 0.07316663 -0.035252035
0003f0 75 19 f1 bd 7e cb 0d be d4 02 03 3e ba 8c ad bd
       -0.11772434 -0.13847157 0.12794048 -0.08474107

lstm.bias_ih_l1 f4 [176]
000000 00 00 00 00 00 00 00 00 00 00 00 00 00 00 00 00
       0.0 0.0 0.0 0.0
000010 00 00 00 00 00 00 00 00 00 00 00 00 00 00 00 00
       0.0 0.0 0.0 0.0
000020 00 00 00 00 00 00 00 00 00 00 00 00 00 00 00 00
       0.0 0.0 0.0 0.0
000030 00 00 00 00 00 00 00 00 00 00 00 00 00 00 00 00
       0.0 0.0 0.0 0.0
000040 00 00 00 00 00 00 00 00 00 00 00 00 00 00 00 00
       0.0 0.0 0.0 0.0
000050 00 00 00 00 00 00 00 00 00 00 00 00 00 00 00 00
       0.0 0.0 0.0 0.0
000060 00 00 00 00 00 00 00 00 00 00 00 00 00 00 00 00
       0.0 0.0 0.0 0.0
000070 00 00 00 00 00 00 00 00 00 00 00 00 00 00 00 00
       0.0 0.0 0.0 0.0
000080 00 00 00 00 00 00 00 00 00 00 00 00 00 00 00 00
       0.0 0.0 0.0 0.0
000090 00 00 00 00 00 00 00 00 00 00 00 00 00 00 00 00
       0.0 0.0 0.0 0.0
0000a0 00 00 00 00 00 00 00 00 00 00 00 00 00 00 00 00
       0.0 0.0 0.0 0.0
0000b0 00 00 00 00 00 00 00 00 00 00 00 00 00 00 00 00
       0.0 0.0 0.0 0.0
0000c0 00 00 00 00 00 00 00 00 00 00 00 00 00 00 00 00
       0.0 0.0 0.0 0.0
0000d0 00 00 00 00 00 00 00 00 00 00 00 00 00 00 00 00
       0.0 0.0 0.0 0.0
0000e0 00 00 00 00 00 00 00 00 00 00 00 00 00 00 00 00
       0.0 0.0 0.0 0.0
0000f0 00 00 00 00 00 00 00 00 00 00 00 00 00 00 00 00
       0.0 0.0 0.0 0.0
000100 00 00 00 00 00 00 00 00 00 00 00 00 00 00 00 00
       0.0 0.0 0.0 0.0
000110 00 00 00 00 00 00 00 00 00 00 00 00 00 00 00 00
       0.0 0.0 0.0 0.0
000120 00 00 00 00 00 00 00 00 00 00 00 00 00 00 00 00
       0.0 0.0 0.0 0.0
000130 00 00 00 00 00 00 00 00 00 00 00 00 00 00 00 00
       0.0 0.0 0.0 0.0
000140 00 00 00 00 00 00 00 00 00 00 00 00 00 00 00 00
       0.0 0.0 0.0 0.0
000150 00 00 00 00 00 00 00 00 00 00 00 00 00 00 00 00
       0.0 0.0 0.0 0.0
000160 00 00 00 00 00 00 00 00 00 00 00 00 00 00 00 00
       0.0 0.0 0.0 0.0
000170 00 00 00 00 00 00 00 00 00 00 00 00 00 00 00 00
       0.0 0.0 0.0 0.0
000180 00 00 00 00 00 00 00 00 00 00 00 00 00 00 00 00
       0.0 0.0 0.0 0.0
000190 00 00 00 00 00 00 00 00 00 00 00 00 00 00 00 00
       0.0 0.0 0.0 0.0
0001a0 00 00 00 00 00 00 00 00 00 00 00 00 00 00 00 00
       0.0 0.0 0.0 0.0
0001b0 00 00 00 00 00 00 00 00 00 00 00 00 00 00 00 00
       0.0 0.0 0.0 0.0
0001c0 00 00 00 00 00 00 00 00 00 00 00 00 00 00 00 00
       0.0 0.0 0.0 0.0
0001d0 00 00 00 00 00 00 00 00 00 00 00 00 00 00 00 00
       0.0 0.0 0.0 0.0
0001e0 00 00 00 00 00 00 00 00 00 00 00 00 00 00 00 00
       0.0 0.0 0.0 0.0
0001f0 00 00 00 00 00 00 00 00 00 00 00 00 00 00 00 00
       0.0 0.0 0.0 0.0
000200 00 00 00 00 00 00 00 00 00 00 00 00 00 00 00 00
       0.0 0.0 0.0 0.0
000210 00 00 00 00 00 00 00 00 00 00 00 00 00 00 00 00
       0.0 0.0 0.0 0.0
000220 00 00 00 00 00 00 00 00 00 00 00 00 00 00 00 00
       0.0 0.0 0.0 0.0
000230 00 00 00 00 00 00 00 00 00 00 00 00 00 00 00 00
       0.0 0.0 0.0 0.0
000240 00 00 00 00 00 00 00 00 00 00 00 00 00 00 00 00
       0.0 0.0 0.0 0.0
000250 00 00 00 00 00 00 00 00 00 00 00 00 00 00 00 00
       0.0 0.0 0.0 0.0
000260 00 00 00 00 00 00 00 00 00 00 00 00 00 00 00 00
       0.0 0.0 0.0 0.0
000270 00 00 00 00 00 00 00 00 00 00 00 00 00 00 00 00
       0.0 0.0 0.0 0.0
000280 00 00 00 00 00 00 00 00 00 00 00 00 00 00 00 00
       0.0 0.0 0.0 0.0
000290 00 00 00 00 00 00 00 00 00 00 00 00 00 00 00 00
       0.0 0.0 0.0 0.0
0002a0 00 00 00 00 00 00 00 00 00 00 00 00 00 00 00 00
       0.0 0.0 0.0 0.0
0002b0 00 00 00 00 00 00 00 00 00 00 00 00 00 00 00 00
       0.0 0.0 0.0 0.0

lstm.bias_hh_l1 f4 [176]
000000 00 00 00 00 00 00 00 00 00 00 00 00 00 00 00 00
       0.0 0.0 0.0 0.0
000010 00 00 00 00 00 00 00 00 00 00 00 00 00 00 00 00
       0.0 0.0 0.0 0.0
000020 00 00 00 00 00 00 00 00 00 00 00 00 00 00 00 00
       0.0 0.0 0.0 0.0
000030 00 00 00 00 00 00 00 00 00 00 00 00 00 00 00 00
       0.0 0.0 0.0 0.0
000040 00 00 00 00 00 00 00 00 00 00 00 00 00 00 00 00
       0.0 0.0 0.0 0.0
000050 00 00 00 00 00 00 00 00 00 00 00 00 00 00 00 00
       0.0 0.0 0.0 0.0
000060 00 00 00 00 00 00 00 00 00 00 00 00 00 00 00 00
       0.0 0.0 0.0 0.0
000070 00 00 00 00 00 00 00 00 00 00 00 00 00 00 00 00
       0.0 0.0 0.0 0.0
000080 00 00 00 00 00 00 00 00 00 00 00 00 00 00 00 00
       0.0 0.0 0.0 0.0
000090 00 00 00 00 00 00 00 00 00 00 00 00 00 00 00 00
       0.0 0.0 0.0 0.0
0000a0 00 00 00 00 00 00 00 00 00 00 00 00 00 00 00 00
       0.0 0.0 0.0 0.0
0000b0 00 00 00 00 00 00 00 00 00 00 00 00 00 00 00 00
       0.0 0.0 0.0 0.0
0000c0 00 00 00 00 00 00 00 00 00 00 00 00 00 00 00 00
       0.0 0.0 0.0 0.0
0000d0 00 00 00 00 00 00 00 00 00 00 00 00 00 00 00 00
       0.0 0.0 0.0 0.0
0000e0 00 00 00 00 00 00 00 00 00 00 00 00 00 00 00 00
       0.0 0.0 0.0 0.0
0000f0 00 00 00 00 00 00 00 00 00 00 00 00 00 00 00 00
       0.0 0.0 0.0 0.0
000100 00 00 00 00 00 00 00 00 00 00 00 00 00 00 00 00
       0.0 0.0 0.0 0.0
000110 00 00 00 00 00 00 00 00 00 00 00 00 00 00 00 00
       0.0 0.0 0.0 0.0
000120 00 00 00 00 00 00 00 00 00 00 00 00 00 00 00 00
       0.0 0.0 0.0 0.0
000130 00 00 00 00 00 00 00 00 00 00 00 00 00 00 00 00
       0.0 0.0 0.0 0.0
000140 00 00 00 00 00 00 00 00 00 00 00 00 00 00 00 00
       0.0 0.0 0.0 0.0
000150 00 00 00 00 00 00 00 00 00 00 00 00 00 00 00 00
       0.0 0.0 0.0 0.0
000160 00 00 00 00 00 00 00 00 00 00 00 00 00 00 00 00
       0.0 0.0 0.0 0.0
000170 00 00 00 00 00 00 00 00 00 00 00 00 00 00 00 00
       0.0 0.0 0.0 0.0
000180 00 00 00 00 00 00 00 00 00 00 00 00 00 00 00 00
       0.0 0.0 0.0 0.0
000190 00 00 00 00 00 00 00 00 00 00 00 00 00 00 00 00
       0.0 0.0 0.0 0.0
0001a0 00 00 00 00 00 00 00 00 00 00 00 00 00 00 00 00
       0.0 0.0 0.0 0.0
0001b0 00 00 00 00 00 00 00 00 00 00 00 00 00 00 00 00
       0.0 0.0 0.0 0.0
0001c0 00 00 00 00 00 00 00 00 00 00 00 00 00 00 00 00
       0.0 0.0 0.0 0.0
0001d0 00 00 00 00 00 00 00 00 00 00 00 00 00 00 00 00
       0.0 0.0 0.0 0.0
0001e0 00 00 00 00 00 00 00 00 00 00 00 00 00 00 00 00
       0.0 0.0 0.0 0.0
0001f0 00 00 00 00 00 00 00 00 00 00 00 00 00 00 00 00
       0.0 0.0 0.0 0.0
000200 00 00 00 00 00 00 00 00 00 00 00 00 00 00 00 00
       0.0 0.0 0.0 0.0
000210 00 00 00 00 00 00 00 00 00 00 00 00 00 00 00 00
       0.0 0.0 0.0 0.0
000220 00 00 00 00 00 00 00 00 00 00 00 00 00 00 00 00
       0.0 0.0 0.0 0.0
000230 00 00 00 00 00 00 00 00 00 00 00 00 00 00 00 00
       0.0 0.0 0.0 0.0
000240 00 00 00 00 00 00 00 00 00 00 00 00 00 00 00 00
       0.0 0.0 0.0 0.0
000250 00 00 00 00 00 00 00 00 00 00 00 00 00 00 00 00
       0.0 0.0 0.0 0.0
000260 00 00 00 00 00 00 00 00 00 00 00 00 00 00 00 00
       0.0 0.0 0.0 0.0
000270 00 00 00 00 00 00 00 00 00 00 00 00 00 00 00 00
       0.0 0.0 0.0 0.0
000280 00 00 00 00 00 00 00 00 00 00 00 00 00 00 00 00
       0.0 0.0 0.0 0.0
000290 00 00 00 00 00 00 00 00 00 00 00 00 00 00 00 00
       0.0 0.0 0.0 0.0
0002a0 00 00 00 00 00 00 00 00 00 00 00 00 00 00 00 00
       0.0 0.0 0.0 0.0
0002b0 00 00 00 00 00 00 00 00 00 00 00 00 00 00 00 00
       0.0 0.0 0.0 0.0

hidden_bn.weight f4 [44]
000000 00 00 80 3f 00 00 80 3f 00 00 80 3f 00 00 80 3f
       1.0 1.0 1.0 1.0
000010 00 00 80 3f 00 00 80 3f 00 00 80 3f 00 00 80 3f
       1.0 1.0 1.0 1.0
000020 00 00 80 3f 00 00 80 3f 00 00 80 3f 00 00 80 3f
       1.0 1.0 1.0 1.0
000030 00 00 80 3f 00 00 80 3f 00 00 80 3f 00 00 80 3f
       1.0 1.0 1.0 1.0
000040 00 00 80 3f 00 00 80 3f 00 00 80 3f 00 00 80 3f
       1.0 1.0 1.0 1.0
000050 00 00 80 3f 00 00 80 3f 00 00 80 3f 00 00 80 3f
       1.0 1.0 1.0 1.0
000060 00 00 80 3f 00 00 80 3f 00 00 80 3f 00 00 80 3f
       1.0 1.0 1.0 1.0
000070 00 00 80 3f 00 00 80 3f 00 00 80 3f 00 00 80 3f
       1.0 1.0 1.0 1.0
000080 00 00 80 3f 00 00 80 3f 00 00 80 3f 00 00 80 3f
       1.0 1.0 1.0 1.0
000090 00 00 80 3f 00 00 80 3f 00 00 80 3f 00 00 80 3f
       1.0 1.0 1.0 1.0
0000a0 00 00 80 3f 00 00 80 3f 00 00 80 3f 00 00 80 3f
       1.0 1.0 1.0 1.0

hidden_bn.bias f4 [44]
000000 00 00 00 00 00 00 00 00 00 00 00 00 00 00 00 00
       0.0 0.0 0.0 0.0
000010 00 00 00 00 00 00 00 00 00 00 00 00 00 00 00 00
       0.0 0.0 0.0 0.0
000020 00 00 00 00 00 00 00 00 00 00 00 00 00 00 00 00
       0.0 0.0 0.0 0.0
000030 00 00 00 00 00 00 00 00 00 00 00 00 00 00 00 00
       0.0 0.0 0.0 0.0
000040 00 00 00 00 00 00 00 00 00 00 00 00 00 00 00 00
       0.0 0.0 0.0 0.0
000050 00 00 00 00 00 00 00 00 00 00 00 00 00 00 00 00
       0.0 0.0 0.0 0.0
000060 00 00 00 00 00 00 00 00 00 00 00 00 00 00 00 00
       0.0 0.0 0.0 0.0
000070 00 00 00 00 00 00 00 00 00 00 00 00 00 00 00 00
       0.0 0.0 0.0 0.0
000080 00 00 00 00 00 00 00 00 00 00 00 00 00 00 00 00
       0.0 0.0 0.0 0.0
000090 00 00 00 00 00 00 00 00 00 00 00 00 00 00 00 00
       0.0 0.0 0.0 0.0
0000a0 00 00 00 00 00 00 00 00 00 00 00 00 00 00 00 00
       0.0 0.0 0.0 0.0

hidden_bn.running_mean f4 [44]
000000 00 00 00 00 00 00 00 00 00 00 00 00 00 00 00 00
       0.0 0.0 0.0 0.0
000010 00 00 00 00 00 00 00 00 00 00 00 00 00 00 00 00
       0.0 0.0 0.0 0.0
000020 00 00 00 00 00 00 00 00 00 00 00 00 00 00 00 00
       0.0 0.0 0.0 0.0
000030 00 00 00 00 00 00 00 00 00 00 00 00 00 00 00 00
       0.0 0.0 0.0 0.0
000040 00 00 00 00 00 00 00 00 00 00 00 00 00 00 00 00
       0.0 0.0 0.0 0.0
000050 00 00 00 00 00 00 00 00 00 00 00 00 00 00 00 00
       0.0 0.0 0.0 0.0
000060 00 00 00 00 00 00 00 00 00 00 00 00 00 00 00 00
       0.0 0.0 0.0 0.0
000070 00 00 00 00 00 00 00 00 00 00 00 00 00 00 00 00
       0.0 0.0 0.0 0.0
000080 00 00 00 00 00 00 00 00 00 00 00 00 00 00 00 00
       0.0 0.0 0.0 0.0
000090 00 00 00 00 00 00 00 00 00 00 00 00 00 00 00 00
       0.0 0.0 0.0 0.0
0000a0 00 00 00 00 00 00 00 00 00 00 00 00 00 00 00 00
       0.0 0.0 0.0 0.0

hidden_bn.running_var f4 [44]
000000 00 00 80 3f 00 00 80 3f 00 00 80 3f 00 00 80 3f
       1.0 1.0 1.0 1.0
000010 00 00 80 3f 00 00 80 3f 00 00 80 3f 00 00 80 3f
       1.0 1.0 1.0 1.0
000020 00 00 80 3f 00 00 80 3f 00 00 80 3f 00 00 80 3f
       1.0 1.0 1.0 1.0
000030 00 00 80 3f 00 00 80 3f 00 00 80 3f 00 00 80 3f
       1.0 1.0 1.0 1.0
000040 00 00 80 3f 00 00 80 3f 00 00 80 3f 00 00 80 3f
       1.0 1.0 1.0 1.0
000050 00 00 80 3f 00 00 80 3f 00 00 80 3f 00 00 80 3f
       1.0 1.0 1.0 1.0
000060 00 00 80 3f 00 00 80 3f 00 00 80 3f 00 00 80 3f
       1.0 1.0 1.0 1.0
000070 00 00 80 3f 00 00 80 3f 00 00 80 3f 00 00 80 3f
       1.0 1.0 1.0 1.0
000080 00 00 80 3f 00 00 80 3f 00 00 80 3f 00 00 80 3f
       1.0 1.0 1.0 1.0
000090 00 00 80 3f 00 00 80 3f 00 00 80 3f 00 00 80 3f
       1.0 1.0 1.0 1.0
0000a0 00 00 80 3f 00 00 80 3f 00 00 80 3f 00 00 80 3f
       1.0 1.0 1.0 1.0

fc.weight f4 [1, 44]
000000 de 1a 80 be 50 52 42 3e d1 5f 86 be f7 7c 9b bd
       -0.25020498 0.18976712 -0.26244977 -0.075921945
000010 e2 fe 4f bd 4b a6 35 3e f4 f9 ad be 28 7b 35 3e
       -0.050780185 0.17739217 -0.33979762 0.17722762
000020 58 57 ac bd 6c 35 b0 bd bd 52 cd ba 04 4b 3d be
       -0.08415097 -0.086039394 -0.0015664917 -0.18485647
000030 ee 59 56 3d a1 46 64 be 21 f3 74 3c 6e 0d 4a 3d
       0.052331857 -0.22292568 0.014950545 0.049329214
000040 74 af 6e 3b ae 46 eb bd e8 b2 dd be a0 eb 91 bd
       0.0036420496 -0.114880905 -0.43300557 -0.0712502
000050 7d fb 5d 3d a1 ac a8 be dd 1c 27 be 08 97 af be
       0.054194916 -0.32944205 -0.16319604 -0.34294915
000060 f8 0a b3 be 4c b5 36 3e 36 a8 97 3e fe 43 74 3d
       -0.34969306 0.17842597 0.29620522 0.059635155
000070 da 6a cc 3e a5 80 3a be 4c b7 4e be 94 01 99 3d
       0.3992527 -0.18213136 -0.2018711 0.07471004
000080 81 6e 14 be 25 76 a0 3c bb 26 30 3e ac ec 32 3e
       -0.14495279 0.019587586 0.17202275 0.17473096
000090 d0 6c a6 3d 34 b8 5a be e3 83 7c bd f1 9c 71 be
       0.08126223 -0.2135933 -0.061649214 -0.23595025
0000a0 f1 a4 c2 3e 68 17 8a be b9 f5 ed 3e cc 43 0c bf
       0.38016465 -0.26970983 0.46476534 -0.5479095
