models/20250302_184828_vanilla_lstm.pt (torch, 626068 bytes, 29 tensors)

input_bn.weight f4 [16]
1.0 1.0 1.0 1.0 1.0 1.0 1.0 1.0
1.0 1.0 1.0 1.0 1.0 1.0 1.0 1.0
00000000: 0000 803f 0000 803f 0000 803f 0000 803f
00000010: 0000 803f 0000 803f 0000 803f 0000 803f
00000020: 0000 803f 0000 803f 0000 803f 0000 803f
00000030: 0000 803f 0000 803f 0000 803f 0000 803f

input_bn.bias f4 [16]
0.0 0.0 0.0 0.0 0.0 0.0 0.0 0.0
0.0 0.0 0.0 0.0 0.0 0.0 0.0 0.0
00000000: 0000 0000 0000 0000 0000 0000 0000 0000
00000010: 0000 0000 0000 0000 0000 0000 0000 0000
00000020: 0000 0000 0000 0000 0000 0000 0000 0000
00000030: 0000 0000 0000 0000 0000 0000 0000 0000

input_bn.running_mean f4 [16]
0.0 0.0 0.0 0.0 0.0 0.0 0.0 0.0
0.0 0.0 0.0 0.0 0.0 0.0 0.0 0.0
00000000: 0000 0000 0000 0000 0000 0000 0000 0000
00000010: 0000 0000 0000 0000 0000 0000 0000 0000
00000020: 0000 0000 0000 0000 0000 0000 0000 0000
00000030: 0000 0000 0000 0000 0000 0000 0000 0000

input_bn.running_var f4 [16]
1.0 1.0 1.0 1.0 1.0 1.0 1.0 1.0
1.0 1.0 1.0 1.0 1.0 1.0 1.0 1.0
00000000: 0000 803f 0000 803f 0000 803f 0000 803f
00000010: 0000 803f 0000 803f 0000 803f 0000 803f
00000020: 0000 803f 0000 803f 0000 803f 0000 803f
00000030: 0000 803f 0000 803f 0000 803f 0000 803f

lstm.weight_ih_l0 f4 [256, 16]
0.0073804385 -0.024172215 0.08751628 0.011404044 0.0688233 0.036786955 0.0766566 0.053107172
0.12734221 0.06969244 -0.008436146 0.028770303 0.029509073 -0.11440761 0.014300322 0.013505733
0.021813607 0.07772901 0.050587386 -0.039478473 0.052570604 0.17490035 0.14255619 0.054135706
0.043412272 0.15862468 0.095492974 -0.08607826 -0.0053307554 -0.096539505 -0.18777685 -0.06597218
0.14986768 -0.067745134 0.039789125 0.07297344 0.013351599 0.10960171 -0.075471565 0.021791976
0.04457857 0.17942289 -0.03615625 -0.0102262255 -0.061387707 -0.13677515 -0.11404032 -0.02351743
0.036719352 0.087970614 -0.07371712 -0.108490355 -0.028291512 -0.12336328 0.13582964 0.10138649
0.08894158 0.06584125 0.10129562 -0.028401444 0.0032704081 0.047240257 0.050294735 0.029713318
0.070352405 -0.050378505 -0.09905628 0.10896043 -0.056689523 0.026162589 -0.024152776 -0.017868303
0.073325865 -0.024792055 0.10626188 -0.10952 0.07293138 0.0077159735 0.039588455 0.04381551
-0.07702051 -0.15708888 -0.05503442 0.16890076 -0.01997147 0.045436487 -0.041522052 0.035825964
-0.1999651 -0.055827294 0.10126049 -0.13884331 -0.023997359 0.03409527 -0.0419071 -0.016014565
0.105545096 -0.1347095 0.07424381 0.025399406 0.06166628 -0.07323136 0.08148975 0.01623683
0.067610845 0.09045145 -0.07927667 -0.054641563 -0.007548602 0.00528675 -0.01356001 -0.060349256
0.011459914 -0.1659692 0.05164499 0.090559125 0.08313432 -0.12838867 -0.01186108 -0.075959444
0.05614397 0.17428681 0.11896822 0.13122086 0.21747866 -0.05509048 -0.024677228 -0.15223336
0.07019154 0.02564361 -0.09099185 0.019847054 -0.074803956 0.21494263 -0.101933576 0.07104872
-0.12287578 0.097937204 0.094595775 -0.03867311 -0.028504647 0.07918485 0.053970285 0.02466967
-0.17857267 0.10221245 0.12345395 0.050299507 0.031247504 -0.18243687 0.11584424 0.08182279
0.032624464 0.10491856 0.044428412 0.12694924 -0.04608651 -0.10941868 -0.11149428 -0.07422774
-0.07301561 0.06700224 0.16358224 0.016023085 0.14908807 -0.079637446 -0.07502387 0.10402575
-0.055141833 0.023570862 -0.10603379 0.04239339 -0.07309444 0.04422781 0.050125204 0.04714682
-0.15288773 0.08167378 0.03824378 0.054371666 -0.09033125 0.08228608 -0.01617589 0.18283254
0.119006895 0.0059599173 0.02642111 0.015525595 0.039594736 0.033405606 -0.18201901 0.11659893
-0.11226002 0.053643085 0.07957263 -0.013627652 0.0655178 0.116903834 0.0075190356 0.033474397
0.0409517 -0.008513844 0.18451153 -0.0960694 -0.17158008 -0.05503317 0.0755306 -0.017152779
0.16622642 -0.18502465 0.080478884 -0.033828188 -0.07498092 0.09556824 -0.039164007 0.034799203
0.0030117542 -0.05092068 0.05164898 0.054197133 0.034672435 -0.07289444 0.050595514 -0.025118757
-0.03243352 0.08271363 0.073821925 0.10398521 -0.04249997 -0.091419324 0.05857304 0.08624032
-0.17314872 -0.03304876 0.120371155 -0.1900459 -0.03957307 0.18728755 -0.03808182 0.14653523
-0.00033716595 0.19010735 -0.032810334 -0.027467187 -0.009032003 0.15913394 0.051110253 -0.08331526
-0.11595427 0.062998965 -0.007234642 -0.019487418 0.17466989 0.12679781 -0.06819588 -0.06524222
00000000: 9bd7 f13b cf04 c6bc bc3b b33d 07d8 3a3c
00000010: 3bf3 8c3d ebad 163d 23fe 9c3d e886 593d
00000020: ff65 023e e9ba 8e3d c337 0abc b3af eb3c
00000030: 03bd f13c 894e eabd e64b 6a3c 2647 5d3c
00000040: 73b2 b23c 6330 9f3d b834 4f3d 2eb4 21bd
00000050: 4654 573d 1419 333e 40fa 113e 67bd 5d3d
00000060: 11d1 313d 826e 223e d291 c33d cc49 b0bd
00000070: 9ead aebb 81b6 c5bd 9348 40be 6c1c 87bd
00000080: ea76 193e f6bd 8abd ecf9 223d 1973 953d
00000090: aac0 5a3c dd76 e03d d690 9abd 1685 b23c
000000a0: 0598 363d a2ba 373e 9318 14bd e68b 27bc
000000b0: ad71 7bbd c90e 0cbe f98d e9bd a0a7 c0bc
000000c0: 0867 163d f029 b43d 00f9 96bd 3130 debd
000000d0: 9ac3 e7bc e3a5 fcbd ed16 0b3e b8a3 cf3d
000000e0: 0127 b63d c7d7 863d 1474 cf3d 25aa e8bc
000000f0: 5854 563b 007f 413d da01 4e3d 5869 f33c
00000100: ec14 903d b159 4ebd 05de cabd a526 df3d
00000110: 4633 68bd ed52 d63c 0bdc c5bc 8c60 92bc
00000120: df2b 963d b518 cbbc d49f d93d 064c e0bd
00000130: 0c5d 953d 47d6 fc3b 8127 223d e477 333d
00000140: eebc 9dbd e8db 20be c66b 61bd 52f4 2c3e
00000150: 359b a3bc 9c1b 3a3d 0713 2abd 3fbe 123d
00000160: a7c3 4cbe 29ab 64bd a961 cf3d f12c 0ebe
00000170: 1c96 c4bc 7ba7 0b3d c7a6 2bbd fa30 83bc
00000180: 0728 d83d 4af1 09be 230d 983d 6a12 d03c
00000190: c895 7c3d 53fa 95bd 19e4 a63d 1a03 853c
000001a0: 8e77 8a3d 9c3e b93d cf5b a2bd d5cf 5fbd
000001b0: 435a f7bb 793c ad3b ce2a 5ebc c830 77bd
000001c0: 5dc2 3b3c d4f3 29be b289 533d 1077 b93d
000001d0: 5442 aa3d 5278 03be fa54 42bc a090 9bbd
000001e0: 38f7 653d 3e78 323e 9ca5 f33d c35e 063e
000001f0: bab2 5e3e 8ea6 61bd e627 cabc 10e3 1bbe
00000200: 95c0 8f3d 8c12 d23c ef59 babd 4a96 a23c
00000210: d132 99bd ec19 5c3e 8dc2 d0bd fe81 913d
00000220: 4ca6 fbbd 4d93 c83d 6ebb c13d b267 1ebd
00000230: 9482 e9bc ab2b a23d f20f 5d3d 0c18 ca3c
00000240: c1db 36be c354 d13d 6dd5 fc3d db06 4e3d
00000250: c4fa ff3c bbd0 3abe bf3f ed3d b592 a73d
00000260: 3ba1 053d 8bdf d63d 91fa 353d fbfe 013e
00000270: 35c5 3cbd e716 e0bd 1d57 e4bd b704 98bd
00000280: 3589 95bd 7838 893d 1a82 273e d842 833c
00000290: 8baa 183e f518 a3bd 1da6 99bd 740b d53d
000002a0: 67dc 61bd ae17 c13c 3e28 d9bd b1a4 2d3d
000002b0: 8ab2 95bd 3828 353d 1650 4d3d 061d 413d
000002c0: 9a8e 1cbe 9544 a73d 83a5 1c3d d3b4 5e3d
000002d0: 97ff b8bd 9b85 a83d 4d83 84bc 7438 3b3e
000002e0: e3b9 f33d 694b c33b 1571 d83c 115f 7e3c
000002f0: 172e 223d 51d4 083d 3163 3abe 6bcb ee3d
00000300: 95e8 e5bd dab8 5b3d faf6 a23d 8446 5fbc
00000310: 322e 863d 476b ef3d 3e62 f63b 731c 093d
00000320: f8bc 273d a67d 0bbc 97f0 3c3e 09c0 c4bd
00000330: b0b2 2fbe 766a 61bd caaf 9a3d fc83 8cbc
00000340: 4237 2a3e 1a77 3dbe 1dd2 a43d 6d8f 0abd
00000350: 998f 99bd 48b9 c33d 706a 20bd 9c89 0e3d
00000360: da60 453b 3492 50bd e18d 533d d0fd 5d3d
00000370: af04 0e3d ae49 95bd 3e3d 4f3d dac5 cdbc
00000380: 03d9 04bd c365 a93d f32f 973d 33f6 d43d
00000390: 7314 2ebd 0e3a bbbd 49ea 6f3d c49e b03d
000003a0: e64d 31be 235e 07bd 2785 f63d 649b 42be
000003b0: 5f17 22bd 4fc8 3f3e affb 1bbd 550d 163e
000003c0: a6c5 b0b9 80ab 423e 2164 06bd de02 e1bc
000003d0: f7fa 13bc 02f4 223e fc58 513d 31a1 aabd
000003e0: 6f79 edbd 9a05 813d 9310 edbb 14a4 9fbc
000003f0: aadc 323e 49d7 013e 48aa 8bbd b79d 85bd

lstm.weight_hh_l0 f4 [256, 64]
-0.13073017 -0.10096068 0.10390762 0.03818414 0.021146702 -0.024790341 -0.02258107 -0.015358769
0.21500891 -0.09759541 -0.026967226 -0.107454516 0.08644276 0.01632141 0.11372831 -0.1106868
0.0385107 0.012287684 -0.0050612567 0.0329009 0.0020467185 -0.064484365 0.027192215 0.02205115
-0.0055965064 -0.03372771 -0.000880994 -0.08233475 -0.019671096 0.11982406 0.09388378 -0.064550206
0.05166117 0.086694025 -0.039285354 -0.009533973 -0.06694447 -0.049763374 0.03411418 0.033734538
-0.007016113 0.0997001 0.07033855 -0.034560405 0.018624557 -0.100921415 -0.11558585 -0.0033437302
0.106575415 -0.124902844 0.012987927 -0.017515812 0.028248819 -0.014209966 -0.010622148 0.000695521
0.13300467 0.092075475 -0.1422739 0.05380722 -0.033096183 -0.051481076 0.12504567 -0.065050215
-0.061661962 -0.006165177 -0.112531096 -0.06477525 0.04116172 -0.02772992 -0.06797393 0.0016508277
0.06689743 0.10720732 -0.03562244 0.0055743405 -0.12766461 0.04584312 0.020161854 0.040251635
0.01178959 -0.044537447 0.048089743 0.042877242 0.0353844 -0.25422207 0.011659635 0.25906885
0.03574031 -0.06494427 0.10401698 0.18827754 -0.06802385 -0.033250794 -0.014622315 0.027679935
-0.14598027 -0.06052877 0.04719686 0.08456307 -0.020608304 0.08834279 -0.06417116 -0.02634703
-0.025773894 0.0009333333 0.090108596 -0.10463822 -0.0045004664 0.06266091 0.043226466 -0.008215828
0.21868213 0.09815211 0.064733535 -0.09318076 0.09465075 -0.069665164 -0.045213472 -0.05526429
0.046235215 -0.07215665 -0.070880085 0.12241783 0.033421483 -0.003388731 0.045668755 0.1703714
0.0051036184 -0.051832926 0.12281635 0.042249136 -0.0965969 0.0080385385 0.17973568 -0.03187399
0.02844794 -0.08762005 0.063882075 0.044417873 -0.039540533 0.050023463 -0.11105634 -0.055292655
-0.011611144 -0.032208603 0.06786348 -0.08892531 0.05613176 -0.004187705 0.11758853 -0.14184013
-0.0062288316 0.0530393 0.06384323 -0.048725992 0.0043557123 0.028479466 0.043464553 0.14251183
-0.07508355 0.11021097 0.01737087 0.029605487 -0.08964656 0.052331142 -0.008843297 0.09107061
0.065876044 0.04801224 0.006866983 -0.013512437 0.10368423 -0.037785657 -0.04952565 -0.037405442
0.0071496316 -0.1720722 -0.06588154 -0.04808387 -0.031706717 -0.10653572 0.021676358 -0.07576791
0.048778217 0.04813665 -0.10126462 -0.05488857 0.04292413 0.15353033 -0.030969089 0.10893574
0.0013485241 0.15595564 0.05052289 0.04692631 0.13934705 0.049260873 -0.062799655 0.20483387
0.15662841 0.02509258 0.009185244 -0.23271085 0.0725265 0.20277187 0.06445073 -0.045231998
0.019664163 -0.022427427 -0.04062021 -0.021707686 -0.03261407 -0.002578611 0.037040908 0.055546947
-0.041609403 -0.08325346 0.047077194 -0.020788196 0.048154358 -0.0026742553 0.011572311 0.030597571
0.008778849 -0.04938377 -0.043267217 -0.004541166 0.12670314 -0.05269426 0.052157678 0.11600734
-0.09384472 0.08526554 -0.025952274 0.103354625 0.051935125 -0.10233251 0.019407297 0.02129905
-0.06503575 0.011838781 -0.08973852 0.103824966 0.15768349 -0.12929529 0.03380005 -0.11122807
-0.0063939323 0.122557774 0.032440875 -0.06571973 0.016505186 0.027811745 -0.077942535 0.11256379
00000000: 21de 05be 79c4 cebd 85cd d43d f966 1c3d
00000010: d93b ad3c 1d15 cbbc f0fb b8bc 59a3 7bbc
00000020: 4c2b 5c3e 1ae0 c7bd 5fea dcbc 1d11 dcbd
00000030: e708 b13d 7ab4 853c 63ea e83d c3af e2bd
00000040: 65bd 1d3d 4852 493c e6d8 a5bb 18c3 063d
00000050: 3d22 063b 6110 84bd 35c2 de3c 9da4 b43c
00000060: e662 b7bb 1126 0abd 82f2 66ba 1f9f a8bd
00000070: 4725 a1bc 5166 f53d 2446 c03d e632 84bd
00000080: aa9a 533d a38c b13d aee9 20bd 6234 1cbc
00000090: 2f1a 89bd aed4 4bbd 4fbb 0b3d 3a2d 0a3d
000000a0: 6ce7 e5bb 912f cc3d a80d 903d 368f 0dbd
000000b0: 8792 983c e3af cebd 46b8 ecbd 7c22 5bbb
000000c0: 3644 da3d 10cd ffbd 50cb 543c 527d 8fbc
000000d0: 116a e73c ebd0 68bc 8508 2ebc a053 363a
000000e0: 6032 083e 1192 bc3d 40b0 11be f664 5c3d
000000f0: dd8f 07bd d2dd 52bd f90b 003e 0c39 85bd
00000100: 4191 7cbd 4105 cabb b476 e6bd e3a8 84bd
00000110: 3199 283d db29 e3bc ea35 8bbd 9660 d83a
00000120: 8501 893d 838f db3d d6e8 11bd f5a8 b63b
00000130: 83ba 02be ffc5 3b3d 792a a53c e6de 243d
00000140: 2029 413c e66c 36bd c0f9 443d 0ca0 2f3d
00000150: 3cef 103d 6529 82be 0e08 3f3c aca4 843e
00000160: 6e64 123d 8001 85bd db06 d53d d4cb 403e
00000170: 1750 8bbd fc31 08bd 6f92 6fbc 08c1 e23c
00000180: da7b 15be 04ed 77bd 7f51 413d 672f ad3d
00000190: bfd2 a8bc 11ed b43d 2b6c 83bd bad5 d7bc
000001a0: c623 d3bc f0aa 743a db8a b83d 904c d6bd
000001b0: a678 93bb 5d54 803d 3c0e 313d ae9b 06bc
000001c0: 35ee 5f3e f903 c93d 0493 843d 8ed5 bebd
000001d0: 41d8 c13d 9cac 8ebd c331 39bd cf5c 62bd
000001e0: 2361 3d3d dec6 93bd 9429 91bd 33b6 fa3d
000001f0: f7e4 083d 7915 5ebb 290f 3b3d d775 2e3e
00000200: 413c a73b c34e 54bd 2387 fb3d 6e0d 2d3d
00000210: 98d4 c5bd 13b4 033c a10c 383e 4d8e 02bd
00000220: a70b e93c 2472 b3bd 9bd4 823d 84ef 353d
00000230: 41f5 21bd 67e5 4c3d 8271 e3bd 8d7a 62bd
00000240: ab3c 3ebc 2bed 03bd 02fc 8a3d 791e b6bd
00000250: 6bea 653d 0439 89bb 41d2 f03d 8a3e 11be
00000260: 3a1b ccbb bd3f 593d 3dc0 823d e894 47bd
00000270: 5dba 8e3b c54d e93c e307 323d 9fee 113e
00000280: 67c5 99bd 4ab6 e13d 5b4d 8e3c 3587 f23c
00000290: 9e98 b7bd 2e59 563d 7ae3 10bc 3a83 ba3d
000002a0: 05ea 863d 7ca8 443d 6e04 e13b 4563 5dbc
000002b0: 6658 d43d 22c5 1abd 68db 4abd 7336 19bd
000002c0: 7547 ea3b b233 30be e7ec 86bd 98f3 44bd
000002d0: e7de 01bd 662f dabd 9e92 b13c 352c 9bbd
000002e0: abcb 473d f02a 453d d363 cfbd d6d2 60bd
000002f0: 36d1 2f3d 0e37 1d3e e3b2 fdbc b419 df3d
00000300: f6c0 b03a d6b2 1f3e 17f1 4e3d cd35 403d
00000310: feb0 0e3e c5c5 493d 1b9d 80bd f8bf 513e
00000320: 3363 203e f48e cd3c b57d 163c c14b 6ebe
00000330: c688 943d 6ea3 4f3e bffe 833d 3045 39bd
00000340: bd16 a13c b9b9 b7bc 6161 26bd 51d4 b1bc
00000350: 5596 05bd eafd 28bb 35b8 173d 3285 633d
00000360: 9f6e 2abd ca80 aabd 04d4 403d 024c aabc
00000370: 813d 453d 8f42 2fbb ca99 3d3c c2a7 fa3c
00000380: 29d5 0f3c a346 4abd f738 31bd 10ce 94bb
00000390: 78be 013e f0d5 57bd 4aa3 553d 4295 ed3d
000003a0: a931 c0bd b39f ae3d dd99 d4bc 97ab d33d
000003b0: edb9 543d b593 d1bd 0dfc 9e3c 587b ae3c
000003c0: 7731 85bd 72f7 413c d4c8 b7bd 2fa2 d43d
000003d0: c877 213e fc65 04be ec71 0a3d 8bcb e3bd
000003e0: 3184 d1bb 92ff fa3d b9e0 043d 1198 86bd
000003f0: e235 873c 75d5 e33c 56a0 9fbd d887 e63d

lstm.bias_ih_l0 f4 [256]
0.0 0.0 0.0 0.0 0.0 0.0 0.0 0.0
0.0 0.0 0.0 0.0 0.0 0.0 0.0 0.0
0.0 0.0 0.0 0.0 0.0 0.0 0.0 0.0
0.0 0.0 0.0 0.0 0.0 0.0 0.0 0.0
0.0 0.0 0.0 0.0 0.0 0.0 0.0 0.0
0.0 0.0 0.0 0.0 0.0 0.0 0.0 0.0
0.0 0.0 0.0 0.0 0.0 0.0 0.0 0.0
0.0 0.0 0.0 0.0 0.0 0.0 0.0 0.0
0.0 0.0 0.0 0.0 0.0 0.0 0.0 0.0
0.0 0.0 0.0 0.0 0.0 0.0 0.0 0.0
0.0 0.0 0.0 0.0 0.0 0.0 0.0 0.0
0.0 0.0 0.0 0.0 0.0 0.0 0.0 0.0
0.0 0.0 0.0 0.0 0.0 0.0 0.0 0.0
0.0 0.0 0.0 0.0 0.0 0.0 0.0 0.0
0.0 0.0 0.0 0.0 0.0 0.0 0.0 0.0
0.0 0.0 0.0 0.0 0.0 0.0 0.0 0.0
0.0 0.0 0.0 0.0 0.0 0.0 0.0 0.0
0.0 0.0 0.0 0.0 0.0 0.0 0.0 0.0
0.0 0.0 0.0 0.0 0.0 0.0 0.0 0.0
0.0 0.0 0.0 0.0 0.0 0.0 0.0 0.0
0.0 0.0 0.0 0.0 0.0 0.0 0.0 0.0
0.0 0.0 0.0 0.0 0.0 0.0 0.0 0.0
0.0 0.0 0.0 0.0 0.0 0.0 0.0 0.0
0.0 0.0 0.0 0.0 0.0 0.0 0.0 0.0
0.0 0.0 0.0 0.0 0.0 0.0 0.0 0.0
0.0 0.0 0.0 0.0 0.0 0.0 0.0 0.0
0.0 0.0 0.0 0.0 0.0 0.0 0.0 0.0
0.0 0.0 0.0 0.0 0.0 0.0 0.0 0.0
0.0 0.0 0.0 0.0 0.0 0.0 0.0 0.0
0.0 0.0 0.0 0.0 0.0 0.0 0.0 0.0
0.0 0.0 0.0 0.0 0.0 0.0 0.0 0.0
0.0 0.0 0.0 0.0 0.0 0.0 0.0 0.0
00000000: 0000 0000 0000 0000 0000 0000 0000 0000
00000010: 0000 0000 0000 0000 0000 0000 0000 0000
00000020: 0000 0000 0000 0000 0000 0000 0000 0000
00000030: 0000 0000 0000 0000 0000 0000 0000 0000
00000040: 0000 0000 0000 0000 0000 0000 0000 0000
00000050: 0000 0000 0000 0000 0000 0000 0000 0000
00000060: 0000 0000 0000 0000 0000 0000 0000 0000
00000070: 0000 0000 0000 0000 0000 0000 0000 0000
00000080: 0000 0000 0000 0000 0000 0000 0000 0000
00000090: 0000 0000 0000 0000 0000 0000 0000 0000
000000a0: 0000 0000 0000 0000 0000 0000 0000 0000
000000b0: 0000 0000 0000 0000 0000 0000 0000 0000
000000c0: 0000 0000 0000 0000 0000 0000 0000 0000
000000d0: 0000 0000 0000 0000 0000 0000 0000 0000
000000e0: 0000 0000 0000 0000 0000 0000 0000 0000
000000f0: 0000 0000 0000 0000 0000 0000 0000 0000
00000100: 0000 0000 0000 0000 0000 0000 0000 0000
00000110: 0000 0000 0000 0000 0000 0000 0000 0000
00000120: 0000 0000 0000 0000 0000 0000 0000 0000
00000130: 0000 0000 0000 0000 0000 0000 0000 0000
00000140: 0000 0000 0000 0000 0000 0000 0000 0000
00000150: 0000 0000 0000 0000 0000 0000 0000 0000
00000160: 0000 0000 0000 0000 0000 0000 0000 0000
00000170: 0000 0000 0000 0000 0000 0000 0000 0000
00000180: 0000 0000 0000 0000 0000 0000 0000 0000
00000190: 0000 0000 0000 0000 0000 0000 0000 0000
000001a0: 0000 0000 0000 0000 0000 0000 0000 0000
000001b0: 0000 0000 0000 0000 0000 0000 0000 0000
000001c0: 0000 0000 0000 0000 0000 0000 0000 0000
000001d0: 0000 0000 0000 0000 0000 0000 0000 0000
000001e0: 0000 0000 0000 0000 0000 0000 0000 0000
000001f0: 0000 0000 0000 0000 0000 0000 0000 0000
00000200: 0000 0000 0000 0000 0000 0000 0000 0000
00000210: 0000 0000 0000 0000 0000 0000 0000 0000
00000220: 0000 0000 0000 0000 0000 0000 0000 0000
00000230: 0000 0000 0000 0000 0000 0000 0000 0000
00000240: 0000 0000 0000 0000 0000 0000 0000 0000
00000250: 0000 0000 0000 0000 0000 0000 0000 0000
00000260: 0000 0000 0000 0000 0000 0000 0000 0000
00000270: 0000 0000 0000 0000 0000 0000 0000 0000
00000280: 0000 0000 0000 0000 0000 0000 0000 0000
00000290: 0000 0000 0000 0000 0000 0000 0000 0000
000002a0: 0000 0000 0000 0000 0000 0000 0000 0000
000002b0: 0000 0000 0000 0000 0000 0000 0000 0000
000002c0: 0000 0000 0000 0000 0000 0000 0000 0000
000002d0: 0000 0000 0000 0000 0000 0000 0000 0000
000002e0: 0000 0000 0000 0000 0000 0000 0000 0000
000002f0: 0000 0000 0000 0000 0000 0000 0000 0000
00000300: 0000 0000 0000 0000 0000 0000 0000 0000
00000310: 0000 0000 0000 0000 0000 0000 0000 0000
00000320: 0000 0000 0000 0000 0000 0000 0000 0000
00000330: 0000 0000 0000 0000 0000 0000 0000 0000
00000340: 0000 0000 0000 0000 0000 0000 0000 0000
00000350: 0000 0000 0000 0000 0000 0000 0000 0000
00000360: 0000 0000 0000 0000 0000 0000 0000 0000
00000370: 0000 0000 0000 0000 0000 0000 0000 0000
00000380: 0000 0000 0000 0000 0000 0000 0000 0000
00000390: 0000 0000 0000 0000 0000 0000 0000 0000
000003a0: 0000 0000 0000 0000 0000 0000 0000 0000
000003b0: 0000 0000 0000 0000 0000 0000 0000 0000
000003c0: 0000 0000 0000 0000 0000 0000 0000 0000
000003d0: 0000 0000 0000 0000 0000 0000 0000 0000
000003e0: 0000 0000 0000 0000 0000 0000 0000 0000
000003f0: 0000 0000 0000 0000 0000 0000 0000 0000

lstm.bias_hh_l0 f4 [256]
0.0 0.0 0.0 0.0 0.0 0.0 0.0 0.0
0.0 0.0 0.0 0.0 0.0 0.0 0.0 0.0
0.0 0.0 0.0 0.0 0.0 0.0 0.0 0.0
0.0 0.0 0.0 0.0 0.0 0.0 0.0 0.0
0.0 0.0 0.0 0.0 0.0 0.0 0.0 0.0
0.0 0.0 0.0 0.0 0.0 0.0 0.0 0.0
0.0 0.0 0.0 0.0 0.0 0.0 0.0 0.0
0.0 0.0 0.0 0.0 0.0 0.0 0.0 0.0
0.0 0.0 0.0 0.0 0.0 0.0 0.0 0.0
0.0 0.0 0.0 0.0 0.0 0.0 0.0 0.0
0.0 0.0 0.0 0.0 0.0 0.0 0.0 0.0
0.0 0.0 0.0 0.0 0.0 0.0 0.0 0.0
0.0 0.0 0.0 0.0 0.0 0.0 0.0 0.0
0.0 0.0 0.0 0.0 0.0 0.0 0.0 0.0
0.0 0.0 0.0 0.0 0.0 0.0 0.0 0.0
0.0 0.0 0.0 0.0 0.0 0.0 0.0 0.0
0.0 0.0 0.0 0.0 0.0 0.0 0.0 0.0
0.0 0.0 0.0 0.0 0.0 0.0 0.0 0.0
0.0 0.0 0.0 0.0 0.0 0.0 0.0 0.0
0.0 0.0 0.0 0.0 0.0 0.0 0.0 0.0
0.0 0.0 0.0 0.0 0.0 0.0 0.0 0.0
0.0 0.0 0.0 0.0 0.0 0.0 0.0 0.0
0.0 0.0 0.0 0.0 0.0 0.0 0.0 0.0
0.0 0.0 0.0 0.0 0.0 0.0 0.0 0.0
0.0 0.0 0.0 0.0 0.0 0.0 0.0 0.0
0.0 0.0 0.0 0.0 0.0 0.0 0.0 0.0
0.0 0.0 0.0 0.0 0.0 0.0 0.0 0.0
0.0 0.0 0.0 0.0 0.0 0.0 0.0 0.0
0.0 0.0 0.0 0.0 0.0 0.0 0.0 0.0
0.0 0.0 0.0 0.0 0.0 0.0 0.0 0.0
0.0 0.0 0.0 0.0 0.0 0.0 0.0 0.0
0.0 0.0 0.0 0.0 0.0 0.0 0.0 0.0
00000000: 0000 0000 0000 0000 0000 0000 0000 0000
00000010: 0000 0000 0000 0000 0000 0000 0000 0000
00000020: 0000 0000 0000 0000 0000 0000 0000 0000
00000030: 0000 0000 0000 0000 0000 0000 0000 0000
00000040: 0000 0000 0000 0000 0000 0000 0000 0000
00000050: 0000 0000 0000 0000 0000 0000 0000 0000
00000060: 0000 0000 0000 0000 0000 0000 0000 0000
00000070: 0000 0000 0000 0000 0000 0000 0000 0000
00000080: 0000 0000 0000 0000 0000 0000 0000 0000
00000090: 0000 0000 0000 0000 0000 0000 0000 0000
000000a0: 0000 0000 0000 0000 0000 0000 0000 0000
000000b0: 0000 0000 0000 0000 0000 0000 0000 0000
000000c0: 0000 0000 0000 0000 0000 0000 0000 0000
000000d0: 0000 0000 0000 0000 0000 0000 0000 0000
000000e0: 0000 0000 0000 0000 0000 0000 0000 0000
000000f0: 0000 0000 0000 0000 0000 0000 0000 0000
00000100: 0000 0000 0000 0000 0000 0000 0000 0000
00000110: 0000 0000 0000 0000 0000 0000 0000 0000
00000120: 0000 0000 0000 0000 0000 0000 0000 0000
00000130: 0000 0000 0000 0000 0000 0000 0000 0000
00000140: 0000 0000 0000 0000 0000 0000 0000 0000
00000150: 0000 0000 0000 0000 0000 0000 0000 0000
00000160: 0000 0000 0000 0000 0000 0000 0000 0000
00000170: 0000 0000 0000 0000 0000 0000 0000 0000
00000180: 0000 0000 0000 0000 0000 0000 0000 0000
00000190: 0000 0000 0000 0000 0000 0000 0000 0000
000001a0: 0000 0000 0000 0000 0000 0000 0000 0000
000001b0: 0000 0000 0000 0000 0000 0000 0000 0000
000001c0: 0000 0000 0000 0000 0000 0000 0000 0000
000001d0: 0000 0000 0000 0000 0000 0000 0000 0000
000001e0: 0000 0000 0000 0000 0000 0000 0000 0000
000001f0: 0000 0000 0000 0000 0000 0000 0000 0000
00000200: 0000 0000 0000 0000 0000 0000 0000 0000
00000210: 0000 0000 0000 0000 0000 0000 0000 0000
00000220: 0000 0000 0000 0000 0000 0000 0000 0000
00000230: 0000 0000 0000 0000 0000 0000 0000 0000
00000240: 0000 0000 0000 0000 0000 0000 0000 0000
00000250: 0000 0000 0000 0000 0000 0000 0000 0000
00000260: 0000 0000 0000 0000 0000 0000 0000 0000
00000270: 0000 0000 0000 0000 0000 0000 0000 0000
00000280: 0000 0000 0000 0000 0000 0000 0000 0000
00000290: 0000 0000 0000 0000 0000 0000 0000 0000
000002a0: 0000 0000 0000 0000 0000 0000 0000 0000
000002b0: 0000 0000 0000 0000 0000 0000 0000 0000
000002c0: 0000 0000 0000 0000 0000 0000 0000 0000
000002d0: 0000 0000 0000 0000 0000 0000 0000 0000
000002e0: 0000 0000 0000 0000 0000 0000 0000 0000
000002f0: 0000 0000 0000 0000 0000 0000 0000 0000
00000300: 0000 0000 0000 0000 0000 0000 0000 0000
00000310: 0000 0000 0000 0000 0000 0000 0000 0000
00000320: 0000 0000 0000 0000 0000 0000 0000 0000
00000330: 0000 0000 0000 0000 0000 0000 0000 0000
00000340: 0000 0000 0000 0000 0000 0000 0000 0000
00000350: 0000 0000 0000 0000 0000 0000 0000 0000
00000360: 0000 0000 0000 0000 0000 0000 0000 0000
00000370: 0000 0000 0000 0000 0000 0000 0000 0000
00000380: 0000 0000 0000 0000 0000 0000 0000 0000
00000390: 0000 0000 0000 0000 0000 0000 0000 0000
000003a0: 0000 0000 0000 0000 0000 0000 0000 0000
000003b0: 0000 0000 0000 0000 0000 0000 0000 0000
000003c0: 0000 0000 0000 0000 0000 0000 0000 0000
000003d0: 0000 0000 0000 0000 0000 0000 0000 0000
000003e0: 0000 0000 0000 0000 0000 0000 0000 0000
000003f0: 0000 0000 0000 0000 0000 0000 0000 0000

lstm.weight_ih_l1 f4 [256, 64]
-0.038555473 -0.00789573 0.032968074 -0.07575774 -0.06449681 0.14660738 0.005396079 -0.0014395948
-0.06879261 0.15150757 -0.035796326 -0.09615126 0.032583762 0.064579315 -0.019505773 0.035783842
-0.06212375 -0.15715007 -0.09819293 0.019419804 0.025276365 -0.07403431 0.12723593 0.051209327
-0.03971357 0.032119896 -0.107415 -0.19753313 0.010827432 0.011274441 -0.085128814 0.028396301
0.05507552 -0.04152978 0.017539239 0.022821603 -0.14766784 0.09536099 -0.011050352 -0.032590535
8.590807e-05 0.010482018 0.037095685 -0.06411927 -0.021668332 0.05594467 -0.030993622 -0.09534294
-0.041784164 0.046740137 0.027865592 0.07635551 -0.09645848 -0.10946748 -0.019780941 -0.046186555
0.035571422 -0.011312433 0.04864389 -0.008513421 0.07086456 0.07978869 -0.11142909 0.04199895
0.0008341435 -0.065332405 0.092241004 0.022196064 0.056426637 0.08844705 0.025211127 -0.10993705
0.11121338 -0.06798196 0.122480944 -0.0427933 -0.014472091 0.03273516 0.15769705 -0.062583484
-0.10313283 -0.002651437 0.048347175 0.08011528 0.07016774 0.05027778 0.008066639 -0.13419949
0.03745377 0.21758729 -0.08913521 -0.03198435 -0.03601509 0.069808975 0.12472832 -0.16263485
-0.019965911 0.044084404 0.055930767 0.029690916 0.041256264 -0.06698012 0.061201602 -0.083565444
0.0609417 -0.08314257 -0.03635322 -0.006163279 0.02459367 -0.1354534 -0.057996877 0.013549391
0.00937204 -0.13541125 -0.06490386 0.16440584 -0.014762531 0.04723176 -0.014797683 0.0062678894
0.025036305 0.0067294245 -0.049143896 0.045953404 -0.04883762 0.036884032 0.16485293 0.012376698
0.0012786635 -0.034576073 0.030842224 0.059969235 -0.21747348 0.04714951 0.0713461 -0.03127859
-0.15283473 -0.006592678 -0.026179371 0.065540746 0.06652844 0.12917191 -0.077982716 -0.04120105
-0.12983158 -0.08959483 -0.025426796 -0.005362061 0.03756329 0.071013235 0.050274722 0.028034853
-0.008009566 -0.08960225 -0.021065151 -0.022789553 -0.037372597 -0.060646888 -0.0037083675 -0.016324278
-0.06336892 -0.014029909 -0.06210219 0.008656251 0.07856578 0.10907764 -0.13751772 -0.07264844
-0.15962753 -0.035195008 -0.07240021 -0.015552324 0.07175239 0.037574474 0.017458538 0.045205593
-0.014900469 -0.044783134 -0.15529597 -0.013967233 0.076490946 -0.0551107 -0.06630758 -0.10055101
0.026755976 -0.02068827 -0.19341967 0.006717034 0.028511282 -0.06221805 -0.07471838 0.05830294
-0.02981196 -0.119006544 -0.0591274 0.030919693 -0.08311881 0.044113893 -0.14775172 0.020859335
0.02258547 -0.106548235 0.043918975 -0.04334105 -0.1650071 0.011724351 -0.07109977 0.048244473
-0.013841354 0.077757746 -0.048959848 -0.017905049 -0.11032864 -0.06268207 0.027898727 -0.12637472
-0.060078785 -0.026061038 0.058140066 0.14964184 -0.0044430383 0.010793363 -0.053704243 -0.12739345
0.085436694 0.057964582 -0.08458033 -0.105030775 -0.018249677 -0.07839872 -0.09401135 -0.021464614
0.054178018 -0.03207538 -0.046300177 0.093512625 -0.15610547 -0.03517313 -0.11792669 0.010061143
-0.02656026 -0.13873442 0.0033227366 -0.0357755 -0.045860205 0.027085455 -0.073073536 0.014943531
-0.15375556 0.06573342 -0.05237061 -0.047740288 0.025087979 -0.13142423 0.015932322 0.102321
00000000: 58ec 1dbd 185d 01bc 8809 073d e026 9bbd
00000010: e716 84bd 3f20 163e 97d1 b03b c9b0 bcba
00000020: 24e3 8cbd cd24 1b3e 2b9f 12bd f4ea c4bd
00000030: 8d76 053d 2942 843d 92ca 9fbc 1492 123d
00000040: 7975 7ebd f3eb 20be 6019 c9bd 4816 9f3c
00000050: 6110 cf3c 4d9f 97bd 234a 023e dfc0 513d
00000060: b2aa 22bd 2790 033d 65fc dbbd 2046 4abe
00000070: 8b65 313c 6fb8 383c 0458 aebd 5c9f e83c
00000080: de96 613d 211b 2abd 73ae 8f3c 5ff4 ba3c
00000090: 3d36 17be 9f4c c33d 890c 35bc a77d 05bd
000000a0: 8b29 b438 c5bc 2b3c a5f1 173d f750 83bd
000000b0: c981 b1bc 3d26 653d 56e6 fdbc 2943 c3bd
000000c0: df25 2bbd 9672 3f3d 6246 e43c 4760 9c3d
000000d0: 068c c5bd 7c30 e0bd a40b a2bc 1d2e 3dbd
000000e0: 57b3 113d c857 39bc d13e 473d e07b 0bbc
000000f0: 7021 913d 4168 a33d ef34 e4bd 1707 2c3d
00000100: 6caa 5a3a ffcc 85bd dae8 bc3d 85d4 b53c
00000110: 9e1f 673d ba23 b53d 9187 ce3c ad26 e1bd
00000120: d7c3 e33d 203a 8bbd 4ad7 fa3d 0748 2fbd
00000130: 591c 6dbc 4e15 063d 567b 213e c52b 80bd
00000140: 4e37 d3bd bbc3 2dbb b007 463d 7b13 a43d
00000150: 1bb4 8f3d 13f0 4d3d f029 043c 976b 09be
00000160: 2069 193d 34cf 5e3e 858c b6bd 0602 03bd
00000170: 8f84 13bd 02f8 8e3d 9071 ff3d c089 26be
00000180: 8d8f a3bc d991 343d a917 653d 5d3a f33c
00000190: 54fc 283d e02c 89bd 88ae 7a3d 5c24 abbd
000001a0: 019e 793d a746 aabd 1de7 14bd 55f5 c9bb
000001b0: aa78 c93c 4cb4 0abe 228e 6dbd 44fe 5d3c
000001c0: 2f8d 193c 3fa9 0abe 51ec 84bd 015a 283e
000001d0: 8bde 71bc 1776 413d fb71 72bc de62 cd3b
000001e0: f018 cd3c 8182 dc3b 1c4b 49bd a339 3c3d
000001f0: f509 48bd b613 173d 35cf 283e a2c7 4a3c
00000200: d498 a73a a49f 0dbd d5a8 fc3c 4da2 753d
00000210: 5eb1 5ebe d81f 413d e71d 923d fb1d 00bd
00000220: b580 1cbe 6407 d8bb 1f76 d6bc 3a3a 863d
00000230: 1040 883d a445 043e 67b5 9fbd 6fc2 28bd
00000240: 92f2 04be 7f7d b7bd db4b d0bc 3ab4 afbb
00000250: f7db 193d 636f 913d deec 4d3d 59a9 e53c
00000260: 8e3a 03bc 6281 b7bd d390 acbc 28b1 babc
00000270: 0214 19bd df68 78bd 1508 73bb 7eba 85bc
00000280: 90c7 81bd b4dd 65bc de5e 7ebd f3d2 0d3c
00000290: 18e7 a03d 1964 df3d 72d1 0cbe b5c8 94bd
000002a0: 6675 23be a428 10bd 9046 94bd 2dcf 7ebc
000002b0: ebf2 923d b1e7 193d 3505 8f3c 8029 393d
000002c0: 1921 74bc 856e 37bd e805 1fbe d2d6 64bc
000002d0: 49a7 9c3d c2bb 61bd 45cc 87bd b0ed cdbd
000002e0: 592f db3c 727a a9bc ce0f 46be 911a dc3b
000002f0: 7e90 e93c 5bd8 7ebd f305 99bd 10cf 6e3d
00000300: 3638 f4bc b4b9 f3bd 932f 72bd 4c4b fd3c
00000310: 323a aabd c5b0 343d 3a4c 17be 32e1 aa3c
00000320: 2a05 b93c f635 dabd 62e4 333d 6386 31bd
00000330: 9ff7 28be 7e17 403c c29c 91bd ff9b 453d
00000340: d9c6 62bc 743f 9f3d 1f8a 48bd 9cad 92bc
00000350: fbf3 e1bd 755f 80bd df8b e43c 6068 01be
00000360: 2c15 76bd f57d d5bc 4724 6e3d b63b 193e
00000370: e896 91bb a5d6 303c fbf8 5bbd 6e73 02be
00000380: 6ff9 ae3d 456c 6d3d 7438 adbd 601a d7bd
00000390: 5980 95bc 828f a0bd 0689 c0bd 8fd6 afbc
000003a0: c5e9 5d3d 7961 03bd 41a5 3dbd 8c83 bf3d
000003b0: 1dda 1fbe b311 10bd 8c83 f1bd 7ed7 243c
000003c0: e794 d9bc 6510 0ebe 45c2 593b 5589 12bd
000003d0: e9d7 3bbd 51e2 dd3c 94a7 95bd b6d5 743c
000003e0: 1972 1dbe 3e9f 863d 9182 56bd 528b 43bd
000003f0: 4e85 cd3c 1394 06be 8084 823c ac8d d13d

lstm.weight_hh_l1 f4 [256, 64]
-0.092243955 0.00921639 -0.07065953 0.12685062 -0.008160969 0.062228166 -0.072563335 0.18714266
-0.03909082 0.080784686 0.04074997 -0.04993014 0.09440107 -0.110425495 -0.16020267 0.1257134
-0.058651604 0.1455452 0.007798219 0.08356463 0.14308645 0.027547942 0.10305843 0.07369013
-0.15203968 0.064293295 -0.0063081626 0.08943556 0.056262277 0.08033438 -0.0062508374 -0.076804034
0.032244295 -0.04181595 -0.09478894 -0.0007355412 -0.048243467 0.015099903 -0.06279418 0.031148773
-0.009660309 -0.05191145 0.04805914 0.007575727 -0.012124673 -0.190157 -0.15566239 0.036095355
0.127409 -0.12629664 0.009299383 0.010865246 -0.07205751 -0.06803129 -0.055339627 -0.04773005
-0.070434235 0.2107223 0.066551544 0.028904764 -0.13642211 -0.072915435 0.1496609 0.026550187
-0.030007482 0.15813373 -0.11361558 0.14465486 -0.0358641 -0.16452143 -0.042367507 -0.056262158
-0.04361454 0.0028804124 -0.042317998 0.02243038 -0.091804884 -0.024303038 0.06512362 0.088715665
-0.11169969 0.028736984 0.0010938826 0.11523159 0.005244079 -0.05247807 -0.056477565 -0.07112439
-0.0661488 -0.101947576 -0.08018926 0.0710727 0.16702296 -0.050432563 -0.08332714 -0.10798865
-0.038552582 0.030382138 -0.0072204857 -0.066332 0.081281744 -0.035337962 0.046049096 -0.0012499522
0.12582359 -0.17777671 0.050541393 -0.0445373 0.013537473 0.017472275 -0.16953054 0.0134422
0.0070581534 0.04207813 -0.0012120962 -0.03555174 -0.056187816 0.035775185 -0.1324435 -0.093290955
0.034644574 0.04655832 -0.050123382 0.090676196 0.035603624 -0.049595494 0.031064723 0.11995699
-0.047826387 -0.045644887 0.027199358 0.10738898 0.018815296 0.06804597 -0.12063877 0.0031889325
-0.0887961 0.009838714 -0.053019773 0.040660884 -0.017067296 0.05516803 -0.021431051 0.013293559
0.053654365 -0.052902237 0.018201252 0.011605848 -0.06796743 0.10342922 0.02740316 -0.009449673
-0.06780248 0.032871824 -0.094237745 -0.02851736 -0.14235346 -0.039020315 -0.0165111 0.04595414
-0.058190867 -0.07245477 -0.081800945 -0.08194461 0.09250311 0.022069957 -0.02825074 -0.119691186
-0.15676676 -0.089024484 0.097491376 0.030399304 -0.16384964 -0.043883257 0.0782753 -0.049998388
-0.060831107 -0.009808515 -0.14860569 -0.0654611 0.065634534 -0.09276682 -0.05461061 -0.12904443
-0.011655791 0.010886221 0.02102802 0.08851847 -0.011478726 -0.071926914 -0.1363948 0.05882727
0.04694251 0.0991847 -0.04639985 -0.052478336 -0.09846263 0.092311524 0.06808575 -0.04754657
0.033459958 0.050855234 0.02461194 -0.16958249 -0.10985194 -0.027082562 0.04599759 0.015044339
-0.094360515 -0.0647852 0.03244552 -0.09526396 0.026677923 -0.010114991 0.046416458 0.029109985
0.11119354 0.015666692 -0.052711096 0.0020852138 0.13961154 -0.081022695 -0.032336682 0.045280453
-0.01990914 -0.040140975 -0.049554802 0.05682687 -0.04781918 -0.0032952111 0.03118473 -0.040792108
0.026781721 -0.017458353 0.10345496 0.065379284 -0.025900941 -0.01789177 0.0025797503 -0.004144845
-0.04319517 0.123929456 -0.014406565 -0.0870132 0.0246419 -0.07773258 -0.013699063 -0.022703376
0.0798577 -0.06612133 0.12031039 0.01381869 -0.14315769 0.038334057 0.08051143 0.0044282586
00000000: 66ea bcbd 5700 173c f2b5 90bd 21e5 013e
00000010: 96b5 05bc f6e2 7e3d 169c 94bd 53a2 3f3e
00000020: b21d 20bd 7172 a53d 71e9 263d 8c83 4cbd
00000030: 5955 c13d c326 e2bd 2b0c 24be 03bb 003e
00000040: aa3c 70bd cd09 153e 3488 ff3b ef23 ab3d
00000050: 4185 123e 39ac e13c 4c10 d33d daea 963d
00000060: 4ab0 1bbe 34ac 833d b4b4 cebb fe29 b73d
00000070: 4673 663d 5a86 a43d d3d3 ccbb 6f4b 9dbd
00000080: 9812 043d 3447 2bbd b420 c2bd 56d1 40ba
00000090: f19a 45bd 9565 773c 3c9a 80bd b62b ff3c
000000a0: 4646 1ebc 1aa1 54bd a9d9 443d ce3d f83b
000000b0: 91a6 46bc 84b8 42be f665 1fbe b9d8 133d
000000c0: 8177 023e e853 01be 705c 183c 2504 323c
000000d0: e392 93bd fd53 8bbd ceab 62bd 9680 43bd
000000e0: d33f 90bd 96c7 573e 2d4c 883d afc9 ec3c
000000f0: 3db2 0bbe b054 95bd b540 193e c77f d93c
00000100: 40d2 f5bc cfed 213e 49af e8bd 6720 143e
00000110: 3ce6 12bd 4e78 28be 8d89 2dbd 2673 66bd
00000120: 29a5 32bd 4dc5 3c3b a355 2dbd ebbf b73c
00000130: 3304 bcbd 2a17 c7bc 885f 853d 8fb0 b53d
00000140: cfc2 e4bd d369 eb3c 9c60 8f3a 8afe eb3d
00000150: 86d6 ab3b 3ff3 56bd 0555 67bd aaa9 91bd
00000160: 0679 87bd e4c9 d0bd 443a a4bd 908e 913d
00000170: 1108 2b3e 6092 4ebd 6ba7 aabd 2729 ddbd
00000180: 50e9 1dbd f6e3 f83c d399 ecbb 12d9 87bd
00000190: 0b77 a63d 8abe 10bd fa9d 3c3d 70d5 a3ba
000001a0: e6d7 003e 190b 36be 7e04 4f3d be6c 36bd
000001b0: 47cc 5d3c 0422 8f3c 6a99 2dbe ac3c 5c3c
000001c0: 1548 e73b 1e5a 2c3d 33df 9eba b49e 11bd
000001d0: 3225 66bd 0089 123d 459f 07be 540f bfbd
000001e0: 78e7 0d3d f0b3 3e3d 2d4e 4dbd 71b4 b93d
000001f0: 1bd5 113d a524 4bbd 727b fe3c 03ac f53d
00000200: 9ae5 43bd 22f6 3abd 30d1 de3c c1ee db3d
00000210: 8922 9a3c af5b 8b3d 7611 f7bd 69fd 503b
00000220: bbda b5bd 8f32 213c 432b 59bd 078c 263d
00000230: b7d0 8bbc dff7 613d 2c90 afbc 3acd 593c
00000240: aec4 5b3d 04b0 58bd cb1a 953c 7426 3e3c
00000250: 8232 8bbd b3d2 d33d 987c e03c cdd2 1abc
00000260: 07dc 8abd 9ba4 063d b8ff c0bd 3d9d e9bc
00000270: 1bc5 11be c4d3 1fbd 4942 87bc 693a 3c3d
00000280: 8c59 6ebd 2b63 94bd 4187 a7bd 93d2 a7bd
00000290: 4572 bd3d 0ecc b43c 196e e7bc a720 f5bd
000002a0: 7787 20be 7852 b6bd 8fa9 c73d f607 f93c
000002b0: 33c8 27be eebe 33bd cd4e a03d 1ccb 4cbd
000002c0: 0a2a 79bd e5b3 20bc 172c 18be 7810 86bd
000002d0: 666b 863d 88fc bdbd 60af 5fbd 3924 04be
000002e0: eef7 3ebc 1f5c 323c f442 ac3c 2c49 b53d
000002f0: 4411 3cbc 6b4e 93bd 14ab 0bbe ddf4 703d
00000300: ca46 403d 5921 cb3d c50d 3ebd 86f3 56bd
00000310: c6a6 c9bd d30d bd3d 8b70 8b3d 31c0 42bd
00000320: 4f0d 093d 944d 503d fb9e c93c 08a7 2dbe
00000330: 0efa e0bd 40dc ddbc f867 3c3d 887c 763c
00000340: 1640 c1bd 1aae 84bd 98e5 043d c019 c3bd
00000350: a98b da3c 59b9 25bc 2f1f 3e3d 1078 ee3c
00000360: 70b9 e33d 6f57 803c 97e7 57bd 15a8 083b
00000370: 54f6 0e3e 3aef a5bd 7873 04bd ff77 393d
00000380: 7e18 a3bc dd6a 24bd faf9 4abd 4bc3 683d
00000390: 0bde 43bd 78f4 57bb 1e77 ff3c a015 27bd
000003a0: 5765 db3c d204 8fbc 32e0 d33d 93e5 853d
000003b0: 362e d4bc c391 92bc 0711 293b 7bd1 87bb
000003c0: 6bed 30bd bace fd3d 8309 6cbc fa33 b2bd
000003d0: cfdd c93c 4232 9fbd 0972 60bc 6efc b9bc
000003e0: 6f8c a33d 9f6a 87bd 4b65 f63d c967 623c
000003f0: ee97 12be 2c04 1d3d 2de3 a43d ed1a 913b

lstm.bias_ih_l1 f4 [256]
0.0 0.0 0.0 0.0 0.0 0.0 0.0 0.0
0.0 0.0 0.0 0.0 0.0 0.0 0.0 0.0
0.0 0.0 0.0 0.0 0.0 0.0 0.0 0.0
0.0 0.0 0.0 0.0 0.0 0.0 0.0 0.0
0.0 0.0 0.0 0.0 0.0 0.0 0.0 0.0
0.0 0.0 0.0 0.0 0.0 0.0 0.0 0.0
0.0 0.0 0.0 0.0 0.0 0.0 0.0 0.0
0.0 0.0 0.0 0.0 0.0 0.0 0.0 0.0
0.0 0.0 0.0 0.0 0.0 0.0 0.0 0.0
0.0 0.0 0.0 0.0 0.0 0.0 0.0 0.0
0.0 0.0 0.0 0.0 0.0 0.0 0.0 0.0
0.0 0.0 0.0 0.0 0.0 0.0 0.0 0.0
0.0 0.0 0.0 0.0 0.0 0.0 0.0 0.0
0.0 0.0 0.0 0.0 0.0 0.0 0.0 0.0
0.0 0.0 0.0 0.0 0.0 0.0 0.0 0.0
0.0 0.0 0.0 0.0 0.0 0.0 0.0 0.0
0.0 0.0 0.0 0.0 0.0 0.0 0.0 0.0
0.0 0.0 0.0 0.0 0.0 0.0 0.0 0.0
0.0 0.0 0.0 0.0 0.0 0.0 0.0 0.0
0.0 0.0 0.0 0.0 0.0 0.0 0.0 0.0
0.0 0.0 0.0 0.0 0.0 0.0 0.0 0.0
0.0 0.0 0.0 0.0 0.0 0.0 0.0 0.0
0.0 0.0 0.0 0.0 0.0 0.0 0.0 0.0
0.0 0.0 0.0 0.0 0.0 0.0 0.0 0.0
0.0 0.0 0.0 0.0 0.0 0.0 0.0 0.0
0.0 0.0 0.0 0.0 0.0 0.0 0.0 0.0
0.0 0.0 0.0 0.0 0.0 0.0 0.0 0.0
0.0 0.0 0.0 0.0 0.0 0.0 0.0 0.0
0.0 0.0 0.0 0.0 0.0 0.0 0.0 0.0
0.0 0.0 0.0 0.0 0.0 0.0 0.0 0.0
0.0 0.0 0.0 0.0 0.0 0.0 0.0 0.0
0.0 0.0 0.0 0.0 0.0 0.0 0.0 0.0
00000000: 0000 0000 0000 0000 0000 0000 0000 0000
00000010: 0000 0000 0000 0000 0000 0000 0000 0000
00000020: 0000 0000 0000 0000 0000 0000 0000 0000
00000030: 0000 0000 0000 0000 0000 0000 0000 0000
00000040: 0000 0000 0000 0000 0000 0000 0000 0000
00000050: 0000 0000 0000 0000 0000 0000 0000 0000
00000060: 0000 0000 0000 0000 0000 0000 0000 0000
00000070: 0000 0000 0000 0000 0000 0000 0000 0000
00000080: 0000 0000 0000 0000 0000 0000 0000 0000
00000090: 0000 0000 0000 0000 0000 0000 0000 0000
000000a0: 0000 0000 0000 0000 0000 0000 0000 0000
000000b0: 0000 0000 0000 0000 0000 0000 0000 0000
000000c0: 0000 0000 0000 0000 0000 0000 0000 0000
000000d0: 0000 0000 0000 0000 0000 0000 0000 0000
000000e0: 0000 0000 0000 0000 0000 0000 0000 0000
000000f0: 0000 0000 0000 0000 0000 0000 0000 0000
00000100: 0000 0000 0000 0000 0000 0000 0000 0000
00000110: 0000 0000 0000 0000 0000 0000 0000 0000
00000120: 0000 0000 0000 0000 0000 0000 0000 0000
00000130: 0000 0000 0000 0000 0000 0000 0000 0000
00000140: 0000 0000 0000 0000 0000 0000 0000 0000
00000150: 0000 0000 0000 0000 0000 0000 0000 0000
00000160: 0000 0000 0000 0000 0000 0000 0000 0000
00000170: 0000 0000 0000 0000 0000 0000 0000 0000
00000180: 0000 0000 0000 0000 0000 0000 0000 0000
00000190: 0000 0000 0000 0000 0000 0000 0000 0000
000001a0: 0000 0000 0000 0000 0000 0000 0000 0000
000001b0: 0000 0000 0000 0000 0000 0000 0000 0000
000001c0: 0000 0000 0000 0000 0000 0000 0000 0000
000001d0: 0000 0000 0000 0000 0000 0000 0000 0000
000001e0: 0000 0000 0000 0000 0000 0000 0000 0000
000001f0: 0000 0000 0000 0000 0000 0000 0000 0000
00000200: 0000 0000 0000 0000 0000 0000 0000 0000
00000210: 0000 0000 0000 0000 0000 0000 0000 0000
00000220: 0000 0000 0000 0000 0000 0000 0000 0000
00000230: 0000 0000 0000 0000 0000 0000 0000 0000
00000240: 0000 0000 0000 0000 0000 0000 0000 0000
00000250: 0000 0000 0000 0000 0000 0000 0000 0000
00000260: 0000 0000 0000 0000 0000 0000 0000 0000
00000270: 0000 0000 0000 0000 0000 0000 0000 0000
00000280: 0000 0000 0000 0000 0000 0000 0000 0000
00000290: 0000 0000 0000 0000 0000 0000 0000 0000
000002a0: 0000 0000 0000 0000 0000 0000 0000 0000
000002b0: 0000 0000 0000 0000 0000 0000 0000 0000
000002c0: 0000 0000 0000 0000 0000 0000 0000 0000
000002d0: 0000 0000 0000 0000 0000 0000 0000 0000
000002e0: 0000 0000 0000 0000 0000 0000 0000 0000
000002f0: 0000 0000 0000 0000 0000 0000 0000 0000
00000300: 0000 0000 0000 0000 0000 0000 0000 0000
00000310: 0000 0000 0000 0000 0000 0000 0000 0000
00000320: 0000 0000 0000 0000 0000 0000 0000 0000
00000330: 0000 0000 0000 0000 0000 0000 0000 0000
00000340: 0000 0000 0000 0000 0000 0000 0000 0000
00000350: 0000 0000 0000 0000 0000 0000 0000 0000
00000360: 0000 0000 0000 0000 0000 0000 0000 0000
00000370: 0000 0000 0000 0000 0000 0000 0000 0000
00000380: 0000 0000 0000 0000 0000 0000 0000 0000
00000390: 0000 0000 0000 0000 0000 0000 0000 0000
000003a0: 0000 0000 0000 0000 0000 0000 0000 0000
000003b0: 0000 0000 0000 0000 0000 0000 0000 0000
000003c0: 0000 0000 0000 0000 0000 0000 0000 0000
000003d0: 0000 0000 0000 0000 0000 0000 0000 0000
000003e0: 0000 0000 0000 0000 0000 0000 0000 0000
000003f0: 0000 0000 0000 0000 0000 0000 0000 0000

lstm.bias_hh_l1 f4 [256]
0.0 0.0 0.0 0.0 0.0 0.0 0.0 0.0
0.0 0.0 0.0 0.0 0.0 0.0 0.0 0.0
0.0 0.0 0.0 0.0 0.0 0.0 0.0 0.0
0.0 0.0 0.0 0.0 0.0 0.0 0.0 0.0
0.0 0.0 0.0 0.0 0.0 0.0 0.0 0.0
0.0 0.0 0.0 0.0 0.0 0.0 0.0 0.0
0.0 0.0 0.0 0.0 0.0 0.0 0.0 0.0
0.0 0.0 0.0 0.0 0.0 0.0 0.0 0.0
0.0 0.0 0.0 0.0 0.0 0.0 0.0 0.0
0.0 0.0 0.0 0.0 0.0 0.0 0.0 0.0
0.0 0.0 0.0 0.0 0.0 0.0 0.0 0.0
0.0 0.0 0.0 0.0 0.0 0.0 0.0 0.0
0.0 0.0 0.0 0.0 0.0 0.0 0.0 0.0
0.0 0.0 0.0 0.0 0.0 0.0 0.0 0.0
0.0 0.0 0.0 0.0 0.0 0.0 0.0 0.0
0.0 0.0 0.0 0.0 0.0 0.0 0.0 0.0
0.0 0.0 0.0 0.0 0.0 0.0 0.0 0.0
0.0 0.0 0.0 0.0 0.0 0.0 0.0 0.0
0.0 0.0 0.0 0.0 0.0 0.0 0.0 0.0
0.0 0.0 0.0 0.0 0.0 0.0 0.0 0.0
0.0 0.0 0.0 0.0 0.0 0.0 0.0 0.0
0.0 0.0 0.0 0.0 0.0 0.0 0.0 0.0
0.0 0.0 0.0 0.0 0.0 0.0 0.0 0.0
0.0 0.0 0.0 0.0 0.0 0.0 0.0 0.0
0.0 0.0 0.0 0.0 0.0 0.0 0.0 0.0
0.0 0.0 0.0 0.0 0.0 0.0 0.0 0.0
0.0 0.0 0.0 0.0 0.0 0.0 0.0 0.0
0.0 0.0 0.0 0.0 0.0 0.0 0.0 0.0
0.0 0.0 0.0 0.0 0.0 0.0 0.0 0.0
0.0 0.0 0.0 0.0 0.0 0.0 0.0 0.0
0.0 0.0 0.0 0.0 0.0 0.0 0.0 0.0
0.0 0.0 0.0 0.0 0.0 0.0 0.0 0.0
00000000: 0000 0000 0000 0000 0000 0000 0000 0000
00000010: 0000 0000 0000 0000 0000 0000 0000 0000
00000020: 0000 0000 0000 0000 0000 0000 0000 0000
00000030: 0000 0000 0000 0000 0000 0000 0000 0000
00000040: 0000 0000 0000 0000 0000 0000 0000 0000
00000050: 0000 0000 0000 0000 0000 0000 0000 0000
00000060: 0000 0000 0000 0000 0000 0000 0000 0000
00000070: 0000 0000 0000 0000 0000 0000 0000 0000
00000080: 0000 0000 0000 0000 0000 0000 0000 0000
00000090: 0000 0000 0000 0000 0000 0000 0000 0000
000000a0: 0000 0000 0000 0000 0000 0000 0000 0000
000000b0: 0000 0000 0000 0000 0000 0000 0000 0000
000000c0: 0000 0000 0000 0000 0000 0000 0000 0000
000000d0: 0000 0000 0000 0000 0000 0000 0000 0000
000000e0: 0000 0000 0000 0000 0000 0000 0000 0000
000000f0: 0000 0000 0000 0000 0000 0000 0000 0000
00000100: 0000 0000 0000 0000 0000 0000 0000 0000
00000110: 0000 0000 0000 0000 0000 0000 0000 0000
00000120: 0000 0000 0000 0000 0000 0000 0000 0000
00000130: 0000 0000 0000 0000 0000 0000 0000 0000
00000140: 0000 0000 0000 0000 0000 0000 0000 0000
00000150: 0000 0000 0000 0000 0000 0000 0000 0000
00000160: 0000 0000 0000 0000 0000 0000 0000 0000
00000170: 0000 0000 0000 0000 0000 0000 0000 0000
00000180: 0000 0000 0000 0000 0000 0000 0000 0000
00000190: 0000 0000 0000 0000 0000 0000 0000 0000
000001a0: 0000 0000 0000 0000 0000 0000 0000 0000
000001b0: 0000 0000 0000 0000 0000 0000 0000 0000
000001c0: 0000 0000 0000 0000 0000 0000 0000 0000
000001d0: 0000 0000 0000 0000 0000 0000 0000 0000
000001e0: 0000 0000 0000 0000 0000 0000 0000 0000
000001f0: 0000 0000 0000 0000 0000 0000 0000 0000
00000200: 0000 0000 0000 0000 0000 0000 0000 0000
00000210: 0000 0000 0000 0000 0000 0000 0000 0000
00000220: 0000 0000 0000 0000 0000 0000 0000 0000
00000230: 0000 0000 0000 0000 0000 0000 0000 0000
00000240: 0000 0000 0000 0000 0000 0000 0000 0000
00000250: 0000 0000 0000 0000 0000 0000 0000 0000
00000260: 0000 0000 0000 0000 0000 0000 0000 0000
00000270: 0000 0000 0000 0000 0000 0000 0000 0000
00000280: 0000 0000 0000 0000 0000 0000 0000 0000
00000290: 0000 0000 0000 0000 0000 0000 0000 0000
000002a0: 0000 0000 0000 0000 0000 0000 0000 0000
000002b0: 0000 0000 0000 0000 0000 0000 0000 0000
000002c0: 0000 0000 0000 0000 0000 0000 0000 0000
000002d0: 0000 0000 0000 0000 0000 0000 0000 0000
000002e0: 0000 0000 0000 0000 0000 0000 0000 0000
000002f0: 0000 0000 0000 0000 0000 0000 0000 0000
00000300: 0000 0000 0000 0000 0000 0000 0000 0000
00000310: 0000 0000 0000 0000 0000 0000 0000 0000
00000320: 0000 0000 0000 0000 0000 0000 0000 0000
00000330: 0000 0000 0000 0000 0000 0000 0000 0000
00000340: 0000 0000 0000 0000 0000 0000 0000 0000
00000350: 0000 0000 0000 0000 0000 0000 0000 0000
00000360: 0000 0000 0000 0000 0000 0000 0000 0000
00000370: 0000 0000 0000 0000 0000 0000 0000 0000
00000380: 0000 0000 0000 0000 0000 0000 0000 0000
00000390: 0000 0000 0000 0000 0000 0000 0000 0000
000003a0: 0000 0000 0000 0000 0000 0000 0000 0000
000003b0: 0000 0000 0000 0000 0000 0000 0000 0000
000003c0: 0000 0000 0000 0000 0000 0000 0000 0000
000003d0: 0000 0000 0000 0000 0000 0000 0000 0000
000003e0: 0000 0000 0000 0000 0000 0000 0000 0000
000003f0: 0000 0000 0000 0000 0000 0000 0000 0000

lstm.weight_ih_l2 f4 [256, 64]
0.070488095 0.08455511 0.03483766 0.0057135406 0.042644527 0.038076695 0.058571633 0.035695452
-0.10598213 -0.108945064 -0.03621913 0.048888236 -0.02804498 0.032524545 -0.08394878 -0.024680989
-0.123585045 0.08413013 -0.0075748735 -0.015029639 -0.007925501 0.00010770152 -0.04372982 -0.087598875
0.12870198 0.071279146 -0.07627745 0.06888757 -0.08899102 -0.14169565 0.059781786 -0.016762674
0.06137469 0.10864044 -0.039681878 -0.026286643 0.1517396 -0.004724617 -0.037713956 -0.09616371
0.121116504 -0.062396575 -0.16206081 0.02143691 0.0036073532 0.010553013 -0.0125645725 0.0012526222
0.11912287 0.08074934 -0.15175536 0.06158925 -0.08186812 -0.031020457 -0.08538854 -0.038376004
-0.013641578 -0.12863865 0.012078362 -0.12476897 0.07196871 0.017484022 0.044680722 -0.091698304
-0.014013184 -0.121798396 -0.040430624 -0.03209436 -0.12300667 0.03205344 0.10439848 -0.09768761
0.095109604 0.106079884 -0.22249268 -0.035009302 -0.076278 0.10344002 -0.11688446 -0.015695188
-0.21447885 -0.15497717 0.12119797 0.05517726 0.032415457 0.017188307 0.06468596 -0.1714277
0.047666077 -0.029129626 -0.03856306 -0.07757206 0.022774376 -0.001684776 0.031430762 -0.092486724
0.10133122 -0.03219123 -0.018064221 -0.00014516976 0.07111523 0.04939597 -0.00025242756 0.069886975
0.0068330355 -0.08413843 -0.047867186 -0.025954012 0.16376096 0.09719285 0.09167757 -0.09229769
0.024610307 -0.02150678 -0.098236054 0.004963796 -0.117339075 -0.0276357 0.03545404 -0.07973731
0.067489356 -0.020535618 0.0013670638 -0.122023575 0.043201834 -0.054154437 0.030837927 0.07463121
0.112292215 0.17222469 -0.1051286 0.09208897 -0.18235926 -0.104300335 -0.04409081 -0.07449764
-0.11295549 -0.020083223 0.08390453 -0.12626536 -0.24883279 0.09209712 0.04191908 0.009681242
-0.03221241 0.01821799 -0.16203868 -0.11151265 -0.07486478 -0.07876722 0.078372896 -0.066403545
-0.05545003 -0.089422345 0.051868193 0.13361321 -0.07416218 0.05163907 0.05341559 -0.008115301
0.07944119 0.023580875 0.17878179 0.042469982 -0.055620346 -0.057999473 0.03377185 0.14837477
-0.02545808 -0.02748035 0.008714864 -0.04047465 -0.018459152 0.009461143 0.010536684 0.023389682
0.106027 -0.10856628 -0.040932756 0.017862398 0.10832392 0.02452019 0.025785191 0.09844882
-0.1874628 0.030975105 0.0252472 0.019969126 -0.052645773 0.028128685 -0.063397504 -0.03486845
0.03725366 0.017734608 -0.020103376 0.006565056 0.0031511215 -0.0064597046 0.17127033 0.042740002
-0.092649594 -0.105252534 0.15769534 -0.03062301 0.0602216 0.030881502 -0.03573955 0.0060795806
0.018998686 0.0265196 0.07543461 0.07455292 -0.005588787 0.065499604 0.024725335 0.14345187
-0.07770193 0.07771308 -0.11977673 -0.07776746 -0.074652955 0.04607797 0.049223408 0.12291147
-0.039295267 0.06393697 0.099282205 0.05739349 -0.033982888 0.09013567 0.100462034 0.034783635
-0.051539335 -0.19160984 -0.06025918 0.17038909 0.026329786 0.06363283 0.12420428 0.14786203
-0.08734108 -0.05022237 0.13994831 0.055129 -0.0797474 0.05825954 0.0012858865 -0.071313865
0.02608702 -0.15667595 0.040829945 0.0649155 0.010385762 -0.05352005 0.09947738 0.023372415
00000000: 105c 903d 3b2b ad3d efb1 0e3d a738 bb3b
00000010: 07ac 2e3d 4ff6 1b3d cfe8 6f3d 6535 123d
00000020: 290d d9bd 971e dfbd 835a 14bd 083f 483d
00000030: 96be e5bc 7538 053d 57ed abbd c92f cabc
00000040: 281a fdbd 6b4c ac3d a536 f8bb e03e 76bc
00000050: f6d9 01bc d0dd e138 0a1e 33bd 0a67 b3bd
00000060: 74ca 033e cdfa 913d 5a37 9cbd ed14 8d3d
00000070: ed40 b6bd aa18 11be bfdd 743d e051 89bc
00000080: 0764 7b3d e17e de3d 7789 22bd 1657 d7bc
00000090: a061 1b3e f6d0 9abb f379 1abd 7bf1 c4bd
000000a0: ee0b f83d 8d93 7fbd 45f3 25be 759c af3c
000000b0: 5869 6c3b 8be6 2c3c a3db 4dbc 072f a43a
000000c0: b1f6 f33d e95f a53d c265 1bbe 0245 7c3d
000000d0: 79aa a7bd 9d1e febc 30e0 aebd 2830 1dbd
000000e0: ed80 5fbc dab9 03be 52e4 453c e086 ffbd
000000f0: 5564 933d a73a 8f3c 2203 373d 52cc bbbd
00000100: 8e97 65bc 7071 f9bd 959a 25bd 6075 03bd
00000110: ecea fbbd 784a 033d dfce d53d 7110 c8bd
00000120: d3c8 c23d 6940 d93d 1fd5 63be ea65 0fbd
00000130: a437 9cbd 5cd8 d33d 1f61 efbd 3293 80bc
00000140: 58a0 5bbe 56b2 1ebe a436 f83d 8d01 623d
00000150: 12c6 043d 7ece 8c3c 137a 843d be8a 2fbe
00000160: 813d 433d 41a1 eebc 4df4 1dbd 1ade 9ebd
00000170: 5491 ba3c b4d3 dcba 8bbd 003d ae69 bdbd
00000180: be86 cf3d f4da 03bd 6bfb 93bc b638 18b9
00000190: dda4 913d 6e53 4a3d 4158 84b9 e720 8f3d
000001a0: a8e7 df3b c550 acbd 6210 44bd 829d d4bc
000001b0: f4b0 273e 0c0d c73d 73c1 bb3d 9206 bdbd
000001c0: 8e9b c93c fd2e b0bc fc2f c9bd 57a7 a23b
000001d0: 784f f0bd 4364 e2bc 4138 113d 514d a3bd
000001e0: dc37 8a3d 503a a8bc 0d2f b33a 7fe7 f9bd
000001f0: 68f4 303d 0bd1 5dbd d29f fc3c 3fd8 983d
00000200: 76f9 e53d ab5b 303e aa4d d7bd 2499 bc3d
00000210: 63bc 3abe 6a9b d5bd 9198 34bd 3892 98bd
00000220: 3555 e7bd 9285 a4bc 23d6 ab3d b54b 01be
00000230: 06ce 7ebe 6a9d bc3d 57b3 2b3d 129e 1e3c
00000240: 29f1 03bd e53d 953c 78ed 25be bf60 e4bd
00000250: b552 99bd b550 a1bd f881 a03d 95fe 87bd
00000260: 921f 63bd 1023 b7bd be73 543d e7d1 083e
00000270: 57e2 97bd 7d83 533d 4eca 5a3d 0af6 04bc
00000280: 10b2 a23d ae2c c13c 9312 373e 01f5 2d3d
00000290: 29d2 63bd db90 6dbd 5a54 0a3d 8eef 173e
000002a0: 778d d0bc 791e e1bc cac8 0e3c bfc8 25bd
000002b0: a637 97bc e902 1b3c 0ea2 2c3c b89b bf3c
000002c0: af24 d93d ff57 debd 1ba9 27bd 2a54 923c
000002d0: eed8 dd3d 91de c83c 773b d33c 899f c93d
000002e0: 40f6 3fbe 81bf fd3c 37d3 ce3c 4b96 a33c
000002f0: 18a3 57bd 216e e63c 8dd6 81bd 38d2 0ebd
00000300: 4b97 183d 2b48 913c d6af a4bc ae1f d73b
00000310: 0c83 4e3b eeab d3bb 7d61 2f3e 2410 2f3d
00000320: 12bf bdbd a48e d7bd e37a 213e 1bdd fabc
00000330: edaa 763d 34fb fc3c a263 12bd 3837 c73b
00000340: 22a3 9b3c a23f d93c 767d 9a3d 34af 983d
00000350: 2522 b7bb a824 863d c98c ca3c 0ce5 123e
00000360: 3122 9fbd 0928 9f3d 814d f5bd 8c44 9fbd
00000370: a6e3 98bd 41bc 3c3d 7c9e 493d 02b9 fb3d
00000380: 13f4 20bd 63f1 823d 7854 cb3d 7015 6b3d
00000390: a431 0bbd 0d99 b83d 0abf cd3d 4979 0e3d
000003a0: e91a 53bd 5f35 44be 54d2 76bd 7a7a 2e3e
000003b0: 90b1 d73c ee51 823d d05e fe3d 2569 173e
000003c0: e1df b2bd f9b5 4dbd 9c4e 0f3e f2ce 613d
000003d0: 9b52 a3bd 8ea1 6e3d 318b a83a 010d 92bd
000003e0: 72b4 d53c a96f 20be 4d3d 273d 6bf2 843d
000003f0: 0b29 2a3c d737 5bbd ccba cb3d 8277 bf3c
